…
  name: "data"
  type: "WindowData"
  top: "data"
  top: "label"
  include {
    phase: TRAIN
  }
  transform_param {
    mirror: true
    crop_size: 224
    mean_value: 104
    mean_value: 117
    mean_value: 123
  }
  window_data_param {
    source: "/home/czhang/caffe_zc/caffe/examples/Googlenet/window_file/window_file_ilsvrc14_sel_val1_yuan_selectiveSearch_edgesBoxes_sample_1000.txt"
    batch_size: 16
    fg_threshold: 0.5
    bg_threshold: 0.5
    fg_fraction: 0.25
    context_pad: 16
    crop_mode: "warp"
    multi_crop_type: "right"
  }
}
layer {
  name: "conv1/7x7_s2"
  type: "Convolution"
  bottom: "data"
  top: "conv1/7x7_s2"
  param {
    lr_mult: 1
    decay_mult: 1
  }
  param {
    lr_mult: 2
    decay_mult: 0
  }
  convolution_param {
    num_output: 64
    pad: 3
    kernel_size: 7
    stride: 2
    weight_filler {
      type: "xavier"
    }
    bias_filler {
      type: "constant"
      value: 0.2
    }
  }
}
layer {
  name: "conv1/7x7_s2_bn"
  type: "BN"
  bottom: "conv1/7x7_s2"
  top: "conv1/7x7_s2_bn"
  param {
    lr_mult: 1
    decay_mult: 0
  }
  param {
    lr_mult: 1
    decay_mult: 0
  }
  bn_param {
    slope_filler {
      type: "constant"
      value: 1
    }
    bias_filler {
      type: "constant"
      value: 0
    }
    frozen: true
  }
}
layer {
  name: "conv1/relu_7x7"
  type: "ReLU"
  bottom: "conv1/7x7_s2_bn"
  top: "conv1/7x7_s2_bn"
}
layer {
  name: "pool1/3x3_s2"
  type: "Pooling"
  bottom: "conv1/7x7_s2_bn"
  top: "pool1/3x3_s2"
  pooling_param {
    pool: MAX
    kernel_size: 3
    stride: 2
  }
}
layer {
  name: "conv2/3x3_reduce"
  type: "Convolution"
  bottom: "pool1/3x3_s2"
  top: "conv2/3x3_reduce"
  param {
    lr_mult: 1
    decay_mult: 1
  }
  param {
    lr_mult: 2
    decay_mult: 0
  }
  convolution_param {
    num_output: 64
    kernel_size: 1
    weight_filler {
      type: "xavier"
    }
    bias_filler {
      type: "constant"
      value: 0.2
    }
  }
}
layer {
  name: "conv2/3x3_reduce_bn"
  type: "BN"
  bottom: "conv2/3x3_reduce"
  top: "conv2/3x3_reduce_bn"
  param {
    lr_mult: 1
    decay_mult: 0
  }
  param {
    lr_mult: 1
    decay_mult: 0
  }
  bn_param {
    slope_filler {
      type: "constant"
      value: 1
    }
    bias_filler {
      type: "constant"
      value: 0
    }
    frozen: true
  }
}
layer {
  name: "conv2/relu_3x3_reduce"
  type: "ReLU"
  bottom: "conv2/3x3_reduce_bn"
  top: "conv2/3x3_reduce_bn"
}
layer {
  name: "conv2/3x3"
  type: "Convolution"
  bottom: "conv2/3x3_reduce_bn"
  top: "conv2/3x3"
  param {
    lr_mult: 1
    decay_mult: 1
  }
  param {
    lr_mult: 2
    decay_mult: 0
  }
  convolution_param {
    num_output: 192
    pad: 1
    kernel_size: 3
    weight_filler {
      type: "xavier"
    }
    bias_filler {
      type: "constant"
      value: 0.2
    }
  }
}
layer {
  name: "conv2/3x3_bn"
  type: "BN"
  bottom: "conv2/3x3"
  top: "conv2/3x3_bn"
  param {
    lr_mult: 1
    decay_mult: 0
  }
  param {
    lr_mult: 1
    decay_mult: 0
  }
  bn_param {
    slope_filler {
      type: "constant"
      value: 1
    }
    bias_filler {
      type: "constant"
      value: 0
    }
    frozen: true
  }
}
layer {
  name: "conv2/relu_3x3"
  type: "ReLU"
  bottom: "conv2/3x3_bn"
  top: "conv2/3x3_bn"
}
layer {
  name: "pool2/3x3_s2"
  type: "Pooling"
  bottom: "conv2/3x3_bn"
  top: "pool2/3x3_s2"
  pooling_param {
    pool: MAX
    kernel_size: 3
    stride: 2
  }
}
layer {
  name: "inception_3a/1x1"
  type: "Convolution"
  bottom: "pool2/3x3_s2"
  top: "inception_3a/1x1"
  param {
    lr_mult: 1
    decay_mult: 1
  }
  param {
    lr_mult: 2
    decay_mult: 0
  }
  convolution_param {
    num_output: 64
    kernel_size: 1
    weight_filler {
      type: "xavier"
    }
    bias_filler {
      type: "constant"
      value: 0.2
    }
  }
}
layer {
  name: "inception_3a/1x1_bn"
  type: "BN"
  bottom: "inception_3a/1x1"
  top: "inception_3a/1x1_bn"
  param {
    lr_mult: 1
    decay_mult: 0
  }
  param {
    lr_mult: 1
    decay_mult: 0
  }
  bn_param {
    slope_filler {
      type: "constant"
      value: 1
    }
    bias_filler {
      type: "constant"
      value: 0
    }
    frozen: true
  }
}
layer {
  name: "inception_3a/relu_1x1"
  type: "ReLU"
  bottom: "inception_3a/1x1_bn"
  top: "inception_3a/1x1_bn"
}
layer {
  name: "inception_3a/3x3_reduce"
  type: "Convolution"
  bottom: "pool2/3x3_s2"
  top: "inception_3a/3x3_reduce"
  param {
    lr_mult: 1
    decay_mult: 1
  }
  param {
    lr_mult: 2
    decay_mult: 0
  }
  convolution_param {
    num_output: 64
    kernel_size: 1
    weight_filler {
      type: "xavier"
    }
    bias_filler {
      type: "constant"
      value: 0.2
    }
  }
}
layer {
  name: "inception_3a/3x3_reduce_bn"
  type: "BN"
  bottom: "inception_3a/3x3_reduce"
  top: "inception_3a/3x3_reduce_bn"
  param {
    lr_mult: 1
    decay_mult: 0
  }
  param {
    lr_mult: 1
    decay_mult: 0
  }
  bn_param {
    slope_filler {
      type: "constant"
      value: 1
    }
    bias_filler {
      type: "constant"
      value: 0
    }
    frozen: true
  }
}
layer {
  name: "inception_3a/relu_3x3_reduce"
  type: "ReLU"
  bottom: "inception_3a/3x3_reduce_bn"
  top: "inception_3a/3x3_reduce_bn"
}
layer {
  name: "inception_3a/3x3"
  type: "Convolution"
  bottom: "inception_3a/3x3_reduce_bn"
  top: "inception_3a/3x3"
  param {
    lr_mult: 1
    decay_mult: 1
  }
  param {
    lr_mult: 2
    decay_mult: 0
  }
  convolution_param {
    num_output: 64
    pad: 1
    kernel_size: 3
    weight_filler {
      type: "xavier"
    }
    bias_filler {
      type: "constant"
      value: 0.2
    }
  }
}
layer {
  name: "inception_3a/3x3_bn"
  type: "BN"
  bottom: "inception_3a/3x3"
  top: "inception_3a/3x3_bn"
  param {
    lr_mult: 1
    decay_mult: 0
  }
  param {
    lr_mult: 1
    decay_mult: 0
  }
  bn_param {
    slope_filler {
      type: "constant"
      value: 1
    }
    bias_filler {
      type: "constant"
      value: 0
    }
    frozen: true
  }
}
layer {
  name: "inception_3a/relu_3x3"
  type: "ReLU"
  bottom: "inception_3a/3x3_bn"
  top: "inception_3a/3x3_bn"
}
layer {
  name: "inception_3a/double_3x3_reduce"
  type: "Convolution"
  bottom: "pool2/3x3_s2"
  top: "inception_3a/double_3x3_reduce"
  param {
    lr_mult: 1
    decay_mult: 1
  }
  param {
    lr_mult: 2
    decay_mult: 0
  }
  convolution_param {
    num_output: 64
    kernel_size: 1
    weight_filler {
      type: "xavier"
    }
    bias_filler {
      type: "constant"
      value: 0.2
    }
  }
}
layer {
  name: "inception_3a/double_3x3_reduce_bn"
  type: "BN"
  bottom: "inception_3a/double_3x3_reduce"
  top: "inception_3a/double_3x3_reduce_bn"
  param {
    lr_mult: 1
    decay_mult: 0
  }
  param {
    lr_mult: 1
    decay_mult: 0
  }
  bn_param {
    slope_filler {
      type: "constant"
      value: 1
    }
    bias_filler {
      type: "constant"
      value: 0
    }
    frozen: true
  }
}
layer {
  name: "inception_3a/relu_double_3x3_reduce"
  type: "ReLU"
  bottom: "inception_3a/double_3x3_reduce_bn"
  top: "inception_3a/double_3x3_reduce_bn"
}
layer {
  name: "inception_3a/double_3x3_1"
  type: "Convolution"
  bottom: "inception_3a/double_3x3_reduce_bn"
  top: "inception_3a/double_3x3_1"
  param {
    lr_mult: 1
    decay_mult: 1
  }
  param {
    lr_mult: 2
    decay_mult: 0
  }
  convolution_param {
    num_output: 96
    pad: 1
    kernel_size: 3
    weight_filler {
      type: "xavier"
    }
    bias_filler {
      type: "constant"
      value: 0.2
    }
  }
}
layer {
  name: "inception_3a/double_3x3_1_bn"
  type: "BN"
  bottom: "inception_3a/double_3x3_1"
  top: "inception_3a/double_3x3_1_bn"
  param {
    lr_mult: 1
    decay_mult: 0
  }
  param {
    lr_mult: 1
    decay_mult: 0
  }
  bn_param {
    slope_filler {
      type: "constant"
      value: 1
    }
    bias_filler {
      type: "constant"
      value: 0
    }
    frozen: true
  }
}
layer {
  name: "inception_3a/relu_double_3x3_1"
  type: "ReLU"
  bottom: "inception_3a/double_3x3_1_bn"
  top: "inception_3a/double_3x3_1_bn"
}
layer {
  name: "inception_3a/double_3x3_2"
  type: "Convolution"
  bottom: "inception_3a/double_3x3_1_bn"
  top: "inception_3a/double_3x3_2"
  param {
    lr_mult: 1
    decay_mult: 1
  }
  param {
    lr_mult: 2
    decay_mult: 0
  }
  convolution_param {
    num_output: 96
    pad: 1
    kernel_size: 3
    weight_filler {
      type: "xavier"
    }
    bias_filler {
      type: "constant"
      value: 0.2
    }
  }
}
layer {
  name: "inception_3a/double_3x3_2_bn"
  type: "BN"
  bottom: "inception_3a/double_3x3_2"
  top: "inception_3a/double_3x3_2_bn"
  param {
    lr_mult: 1
    decay_mult: 0
  }
  param {
    lr_mult: 1
    decay_mult: 0
  }
  bn_param {
    slope_filler {
      type: "constant"
      value: 1
    }
    bias_filler {
      type: "constant"
      value: 0
    }
    frozen: true
  }
}
layer {
  name: "inception_3a/relu_double_3x3_2"
  type: "ReLU"
  bottom: "inception_3a/double_3x3_2_bn"
  top: "inception_3a/double_3x3_2_bn"
}
layer {
  name: "inception_3a/pool"
  type: "Pooling"
  bottom: "pool2/3x3_s2"
  top: "inception_3a/pool"
  pooling_param {
    pool: AVE
    kernel_size: 3
    stride: 1
    pad: 1
  }
}
layer {
  name: "inception_3a/pool_proj"
  type: "Convolution"
  bottom: "inception_3a/pool"
  top: "inception_3a/pool_proj"
  param {
    lr_mult: 1
    decay_mult: 1
  }
  param {
    lr_mult: 2
    decay_mult: 0
  }
  convolution_param {
    num_output: 32
    kernel_size: 1
    weight_filler {
      type: "xavier"
    }
    bias_filler {
      type: "constant"
      value: 0.2
    }
  }
}
layer {
  name: "inception_3a/pool_proj_bn"
  type: "BN"
  bottom: "inception_3a/pool_proj"
  top: "inception_3a/pool_proj_bn"
  param {
    lr_mult: 1
    decay_mult: 0
  }
  param {
    lr_mult: 1
    decay_mult: 0
  }
  bn_param {
    slope_filler {
      type: "constant"
      value: 1
    }
    bias_filler {
      type: "constant"
      value: 0
    }
    frozen: true
  }
}
layer {
  name: "inception_3a/relu_pool_proj"
  type: "ReLU"
  bottom: "inception_3a/pool_proj_bn"
  top: "inception_3a/pool_proj_bn"
}
layer {
  name: "inception_3a/output"
  type: "Concat"
  bottom: "inception_3a/1x1_bn"
  bottom: "inception_3a/3x3_bn"
  bottom: "inception_3a/double_3x3_2_bn"
  bottom: "inception_3a/pool_proj_bn"
  top: "inception_3a/output"
}
layer {
  name: "inception_3b/1x1"
  type: "Convolution"
  bottom: "inception_3a/output"
  top: "inception_3b/1x1"
  param {
    lr_mult: 1
    decay_mult: 1
  }
  param {
    lr_mult: 2
    decay_mult: 0
  }
  convolution_param {
    num_output: 64
    kernel_size: 1
    weight_filler {
      type: "xavier"
    }
    bias_filler {
      type: "constant"
      value: 0.2
    }
  }
}
layer {
  name: "inception_3b/1x1_bn"
  type: "BN"
  bottom: "inception_3b/1x1"
  top: "inception_3b/1x1_bn"
  param {
    lr_mult: 1
    decay_mult: 0
  }
  param {
    lr_mult: 1
    decay_mult: 0
  }
  bn_param {
    slope_filler {
      type: "constant"
      value: 1
    }
    bias_filler {
      type: "constant"
      value: 0
    }
    frozen: true
  }
}
layer {
  name: "inception_3b/relu_1x1"
  type: "ReLU"
  bottom: "inception_3b/1x1_bn"
  top: "inception_3b/1x1_bn"
}
layer {
  name: "inception_3b/3x3_reduce"
  type: "Convolution"
  bottom: "inception_3a/output"
  top: "inception_3b/3x3_reduce"
  param {
    lr_mult: 1
    decay_mult: 1
  }
  param {
    lr_mult: 2
    decay_mult: 0
  }
  convolution_param {
    num_output: 64
    kernel_size: 1
    weight_filler {
      type: "xavier"
    }
    bias_filler {
      type: "constant"
      value: 0.2
    }
  }
}
layer {
  name: "inception_3b/3x3_reduce_bn"
  type: "BN"
  bottom: "inception_3b/3x3_reduce"
  top: "inception_3b/3x3_reduce_bn"
  param {
    lr_mult: 1
    decay_mult: 0
  }
  param {
    lr_mult: 1
    decay_mult: 0
  }
  bn_param {
    slope_filler {
      type: "constant"
      value: 1
    }
    bias_filler {
      type: "constant"
      value: 0
    }
    frozen: true
  }
}
layer {
  name: "inception_3b/relu_3x3_reduce"
  type: "ReLU"
  bottom: "inception_3b/3x3_reduce_bn"
  top: "inception_3b/3x3_reduce_bn"
}
layer {
  name: "inception_3b/3x3"
  type: "Convolution"
  bottom: "inception_3b/3x3_reduce_bn"
  top: "inception_3b/3x3"
  param {
    lr_mult: 1
    decay_mult: 1
  }
  param {
    lr_mult: 2
    decay_mult: 0
  }
  convolution_param {
    num_output: 96
    pad: 1
    kernel_size: 3
    weight_filler {
      type: "xavier"
    }
    bias_filler {
      type: "constant"
      value: 0.2
    }
  }
}
layer {
  name: "inception_3b/3x3_bn"
  type: "BN"
  bottom: "inception_3b/3x3"
  top: "inception_3b/3x3_bn"
  param {
    lr_mult: 1
    decay_mult: 0
  }
  param {
    lr_mult: 1
    decay_mult: 0
  }
  bn_param {
    slope_filler {
      type: "constant"
      value: 1
    }
    bias_filler {
      type: "constant"
      value: 0
    }
    frozen: true
  }
}
layer {
  name: "inception_3b/relu_3x3"
  type: "ReLU"
  bottom: "inception_3b/3x3_bn"
  top: "inception_3b/3x3_bn"
}
layer {
  name: "inception_3b/double_3x3_reduce"
  type: "Convolution"
  bottom: "inception_3a/output"
  top: "inception_3b/double_3x3_reduce"
  param {
    lr_mult: 1
    decay_mult: 1
  }
  param {
    lr_mult: 2
    decay_mult: 0
  }
  convolution_param {
    num_output: 64
    kernel_size: 1
    weight_filler {
      type: "xavier"
    }
    bias_filler {
      type: "constant"
      value: 0.2
    }
  }
}
layer {
  name: "inception_3b/double_3x3_reduce_bn"
  type: "BN"
  bottom: "inception_3b/double_3x3_reduce"
  top: "inception_3b/double_3x3_reduce_bn"
  param {
    lr_mult: 1
    decay_mult: 0
  }
  param {
    lr_mult: 1
    decay_mult: 0
  }
  bn_param {
    slope_filler {
      type: "constant"
      value: 1
    }
    bias_filler {
      type: "constant"
      value: 0
    }
    frozen: true
  }
}
layer {
  name: "inception_3b/relu_double_3x3_reduce"
  type: "ReLU"
  bottom: "inception_3b/double_3x3_reduce_bn"
  top: "inception_3b/double_3x3_reduce_bn"
}
layer {
  name: "inception_3b/double_3x3_1"
  type: "Convolution"
  bottom: "inception_3b/double_3x3_reduce_bn"
  top: "inception_3b/double_3x3_1"
  param {
    lr_mult: 1
    decay_mult: 1
  }
  param {
    lr_mult: 2
    decay_mult: 0
  }
  convolution_param {
    num_output: 96
    pad: 1
    kernel_size: 3
    weight_filler {
      type: "xavier"
    }
    bias_filler {
      type: "constant"
      value: 0.2
    }
  }
}
layer {
  name: "inception_3b/double_3x3_1_bn"
  type: "BN"
  bottom: "inception_3b/double_3x3_1"
  top: "inception_3b/double_3x3_1_bn"
  param {
    lr_mult: 1
    decay_mult: 0
  }
  param {
    lr_mult: 1
    decay_mult: 0
  }
  bn_param {
    slope_filler {
      type: "constant"
      value: 1
    }
    bias_filler {
      type: "constant"
      value: 0
    }
    frozen: true
  }
}
layer {
  name: "inception_3b/relu_double_3x3_1"
  type: "ReLU"
  bottom: "inception_3b/double_3x3_1_bn"
  top: "inception_3b/double_3x3_1_bn"
}
layer {
  name: "inception_3b/double_3x3_2"
  type: "Convolution"
  bottom: "inception_3b/double_3x3_1_bn"
  top: "inception_3b/double_3x3_2"
  param {
    lr_mult: 1
    decay_mult: 1
  }
  param {
    lr_mult: 2
    decay_mult: 0
  }
  convolution_param {
    num_output: 96
    pad: 1
    kernel_size: 3
    weight_filler {
      type: "xavier"
    }
    bias_filler {
      type: "constant"
      value: 0.2
    }
  }
}
layer {
  name: "inception_3b/double_3x3_2_bn"
  type: "BN"
  bottom: "inception_3b/double_3x3_2"
  top: "inception_3b/double_3x3_2_bn"
  param {
    lr_mult: 1
    decay_mult: 0
  }
  param {
    lr_mult: 1
    decay_mult: 0
  }
  bn_param {
    slope_filler {
      type: "constant"
      value: 1
    }
    bias_filler {
      type: "constant"
      value: 0
    }
    frozen: true
  }
}
layer {
  name: "inception_3b/relu_double_3x3_2"
  type: "ReLU"
  bottom: "inception_3b/double_3x3_2_bn"
  top: "inception_3b/double_3x3_2_bn"
}
layer {
  name: "inception_3b/pool"
  type: "Pooling"
  bottom: "inception_3a/output"
  top: "inception_3b/pool"
  pooling_param {
    pool: AVE
    kernel_size: 3
    stride: 1
    pad: 1
  }
}
layer {
  name: "inception_3b/pool_proj"
  type: "Convolution"
  bottom: "inception_3b/pool"
  top: "inception_3b/pool_proj"
  param {
    lr_mult: 1
    decay_mult: 1
  }
  param {
    lr_mult: 2
    decay_mult: 0
  }
  convolution_param {
    num_output: 64
    kernel_size: 1
    weight_filler {
      type: "xavier"
    }
    bias_filler {
      type: "constant"
      value: 0.2
    }
  }
}
layer {
  name: "inception_3b/pool_proj_bn"
  type: "BN"
  bottom: "inception_3b/pool_proj"
  top: "inception_3b/pool_proj_bn"
  param {
    lr_mult: 1
    decay_mult: 0
  }
  param {
    lr_mult: 1
    decay_mult: 0
  }
  bn_param {
    slope_filler {
      type: "constant"
      value: 1
    }
    bias_filler {
      type: "constant"
      value: 0
    }
    frozen: true
  }
}
layer {
  name: "inception_3b/relu_pool_proj"
  type: "ReLU"
  bottom: "inception_3b/pool_proj_bn"
  top: "inception_3b/pool_proj_bn"
}
layer {
  name: "inception_3b/output"
  type: "Concat"
  bottom: "inception_3b/1x1_bn"
  bottom: "inception_3b/3x3_bn"
  bottom: "inception_3b/double_3x3_2_bn"
  bottom: "inception_3b/pool_proj_bn"
  top: "inception_3b/output"
}
layer {
  name: "inception_3c/3x3_reduce"
  type: "Convolution"
  bottom: "inception_3b/output"
  top: "inception_3c/3x3_reduce"
  param {
    lr_mult: 1
    decay_mult: 1
  }
  param {
    lr_mult: 2
    decay_mult: 0
  }
  convolution_param {
    num_output: 128
    kernel_size: 1
    weight_filler {
      type: "xavier"
    }
    bias_filler {
      type: "constant"
      value: 0.2
    }
  }
}
layer {
  name: "inception_3c/3x3_reduce_bn"
  type: "BN"
  bottom: "inception_3c/3x3_reduce"
  top: "inception_3c/3x3_reduce_bn"
  param {
    lr_mult: 1
    decay_mult: 0
  }
  param {
    lr_mult: 1
    decay_mult: 0
  }
  bn_param {
    slope_filler {
      type: "constant"
      value: 1
    }
    bias_filler {
      type: "constant"
      value: 0
    }
    frozen: true
  }
}
layer {
  name: "inception_3c/relu_3x3_reduce"
  type: "ReLU"
  bottom: "inception_3c/3x3_reduce_bn"
  top: "inception_3c/3x3_reduce_bn"
}
layer {
  name: "inception_3c/3x3"
  type: "Convolution"
  bottom: "inception_3c/3x3_reduce_bn"
  top: "inception_3c/3x3"
  param {
    lr_mult: 1
    decay_mult: 1
  }
  param {
    lr_mult: 2
    decay_mult: 0
  }
  convolution_param {
    num_output: 160
    pad: 1
    kernel_size: 3
    stride: 2
    weight_filler {
      type: "xavier"
    }
    bias_filler {
      type: "constant"
      value: 0.2
    }
  }
}
layer {
  name: "inception_3c/3x3_bn"
  type: "BN"
  bottom: "inception_3c/3x3"
  top: "inception_3c/3x3_bn"
  param {
    lr_mult: 1
    decay_mult: 0
  }
  param {
    lr_mult: 1
    decay_mult: 0
  }
  bn_param {
    slope_filler {
      type: "constant"
      value: 1
    }
    bias_filler {
      type: "constant"
      value: 0
    }
    frozen: true
  }
}
layer {
  name: "inception_3c/relu_3x3"
  type: "ReLU"
  bottom: "inception_3c/3x3_bn"
  top: "inception_3c/3x3_bn"
}
layer {
  name: "inception_3c/double_3x3_reduce"
  type: "Convolution"
  bottom: "inception_3b/output"
  top: "inception_3c/double_3x3_reduce"
  param {
    lr_mult: 1
    decay_mult: 1
  }
  param {
    lr_mult: 2
    decay_mult: 0
  }
  convolution_param {
    num_output: 64
    kernel_size: 1
    weight_filler {
      type: "xavier"
    }
    bias_filler {
      type: "constant"
      value: 0.2
    }
  }
}
layer {
  name: "inception_3c/double_3x3_reduce_bn"
  type: "BN"
  bottom: "inception_3c/double_3x3_reduce"
  top: "inception_3c/double_3x3_reduce_bn"
  param {
    lr_mult: 1
    decay_mult: 0
  }
  param {
    lr_mult: 1
    decay_mult: 0
  }
  bn_param {
    slope_filler {
      type: "constant"
      value: 1
    }
    bias_filler {
      type: "constant"
      value: 0
    }
    frozen: true
  }
}
layer {
  name: "inception_3c/relu_double_3x3_reduce"
  type: "ReLU"
  bottom: "inception_3c/double_3x3_reduce_bn"
  top: "inception_3c/double_3x3_reduce_bn"
}
layer {
  name: "inception_3c/double_3x3_1"
  type: "Convolution"
  bottom: "inception_3c/double_3x3_reduce_bn"
  top: "inception_3c/double_3x3_1"
  param {
    lr_mult: 1
    decay_mult: 1
  }
  param {
    lr_mult: 2
    decay_mult: 0
  }
  convolution_param {
    num_output: 96
    pad: 1
    kernel_size: 3
    weight_filler {
      type: "xavier"
    }
    bias_filler {
      type: "constant"
      value: 0.2
    }
  }
}
layer {
  name: "inception_3c/double_3x3_1_bn"
  type: "BN"
  bottom: "inception_3c/double_3x3_1"
  top: "inception_3c/double_3x3_1_bn"
  param {
    lr_mult: 1
    decay_mult: 0
  }
  param {
    lr_mult: 1
    decay_mult: 0
  }
  bn_param {
    slope_filler {
      type: "constant"
      value: 1
    }
    bias_filler {
      type: "constant"
      value: 0
    }
    frozen: true
  }
}
layer {
  name: "inception_3c/relu_double_3x3_1"
  type: "ReLU"
  bottom: "inception_3c/double_3x3_1_bn"
  top: "inception_3c/double_3x3_1_bn"
}
layer {
  name: "inception_3c/double_3x3_2"
  type: "Convolution"
  bottom: "inception_3c/double_3x3_1_bn"
  top: "inception_3c/double_3x3_2"
  param {
    lr_mult: 1
    decay_mult: 1
  }
  param {
    lr_mult: 2
    decay_mult: 0
  }
  convolution_param {
    num_output: 96
    pad: 1
    kernel_size: 3
    stride: 2
    weight_filler {
      type: "xavier"
    }
    bias_filler {
      type: "constant"
      value: 0.2
    }
  }
}
layer {
  name: "inception_3c/double_3x3_2_bn"
  type: "BN"
  bottom: "inception_3c/double_3x3_2"
  top: "inception_3c/double_3x3_2_bn"
  param {
    lr_mult: 1
    decay_mult: 0
  }
  param {
    lr_mult: 1
    decay_mult: 0
  }
  bn_param {
    slope_filler {
      type: "constant"
      value: 1
    }
    bias_filler {
      type: "constant"
      value: 0
    }
    frozen: true
  }
}
layer {
  name: "inception_3c/relu_double_3x3_2"
  type: "ReLU"
  bottom: "inception_3c/double_3x3_2_bn"
  top: "inception_3c/double_3x3_2_bn"
}
layer {
  name: "inception_3c/pool"
  type: "Pooling"
  bottom: "inception_3b/output"
  top: "inception_3c/pool"
  pooling_param {
    pool: MAX
    kernel_size: 3
    stride: 2
  }
}
layer {
  name: "inception_3c/output"
  type: "Concat"
  bottom: "inception_3c/3x3_bn"
  bottom: "inception_3c/double_3x3_2_bn"
  bottom: "inception_3c/pool"
  top: "inception_3c/output"
}
layer {
  name: "inception_4a/1x1"
  type: "Convolution"
  bottom: "inception_3c/output"
  top: "inception_4a/1x1"
  param {
    lr_mult: 1
    decay_mult: 1
  }
  param {
    lr_mult: 2
    decay_mult: 0
  }
  convolution_param {
    num_output: 224
    kernel_size: 1
    weight_filler {
      type: "xavier"
    }
    bias_filler {
      type: "constant"
      value: 0.2
    }
  }
}
layer {
  name: "inception_4a/1x1_bn"
  type: "BN"
  bottom: "inception_4a/1x1"
  top: "inception_4a/1x1_bn"
  param {
    lr_mult: 1
    decay_mult: 0
  }
  param {
    lr_mult: 1
    decay_mult: 0
  }
  bn_param {
    slope_filler {
      type: "constant"
      value: 1
    }
    bias_filler {
      type: "constant"
      value: 0
    }
    frozen: true
  }
}
layer {
  name: "inception_4a/relu_1x1"
  type: "ReLU"
  bottom: "inception_4a/1x1_bn"
  top: "inception_4a/1x1_bn"
}
layer {
  name: "inception_4a/3x3_reduce"
  type: "Convolution"
  bottom: "inception_3c/output"
  top: "inception_4a/3x3_reduce"
  param {
    lr_mult: 1
    decay_mult: 1
  }
  param {
    lr_mult: 2
    decay_mult: 0
  }
  convolution_param {
    num_output: 64
    kernel_size: 1
    weight_filler {
      type: "xavier"
    }
    bias_filler {
      type: "constant"
      value: 0.2
    }
  }
}
layer {
  name: "inception_4a/3x3_reduce_bn"
  type: "BN"
  bottom: "inception_4a/3x3_reduce"
  top: "inception_4a/3x3_reduce_bn"
  param {
    lr_mult: 1
    decay_mult: 0
  }
  param {
    lr_mult: 1
    decay_mult: 0
  }
  bn_param {
    slope_filler {
      type: "constant"
      value: 1
    }
    bias_filler {
      type: "constant"
      value: 0
    }
    frozen: true
  }
}
layer {
  name: "inception_4a/relu_3x3_reduce"
  type: "ReLU"
  bottom: "inception_4a/3x3_reduce_bn"
  top: "inception_4a/3x3_reduce_bn"
}
layer {
  name: "inception_4a/3x3"
  type: "Convolution"
  bottom: "inception_4a/3x3_reduce_bn"
  top: "inception_4a/3x3"
  param {
    lr_mult: 1
    decay_mult: 1
  }
  param {
    lr_mult: 2
    decay_mult: 0
  }
  convolution_param {
    num_output: 96
    pad: 1
    kernel_size: 3
    weight_filler {
      type: "xavier"
    }
    bias_filler {
      type: "constant"
      value: 0.2
    }
  }
}
layer {
  name: "inception_4a/3x3_bn"
  type: "BN"
  bottom: "inception_4a/3x3"
  top: "inception_4a/3x3_bn"
  param {
    lr_mult: 1
    decay_mult: 0
  }
  param {
    lr_mult: 1
    decay_mult: 0
  }
  bn_param {
    slope_filler {
      type: "constant"
      value: 1
    }
    bias_filler {
      type: "constant"
      value: 0
    }
    frozen: true
  }
}
layer {
  name: "inception_4a/relu_3x3"
  type: "ReLU"
  bottom: "inception_4a/3x3_bn"
  top: "inception_4a/3x3_bn"
}
layer {
  name: "inception_4a/double_3x3_reduce"
  type: "Convolution"
  bottom: "inception_3c/output"
  top: "inception_4a/double_3x3_reduce"
  param {
    lr_mult: 1
    decay_mult: 1
  }
  param {
    lr_mult: 2
    decay_mult: 0
  }
  convolution_param {
    num_output: 96
    kernel_size: 1
    weight_filler {
      type: "xavier"
    }
    bias_filler {
      type: "constant"
      value: 0.2
    }
  }
}
layer {
  name: "inception_4a/double_3x3_reduce_bn"
  type: "BN"
  bottom: "inception_4a/double_3x3_reduce"
  top: "inception_4a/double_3x3_reduce_bn"
  param {
    lr_mult: 1
    decay_mult: 0
  }
  param {
    lr_mult: 1
    decay_mult: 0
  }
  bn_param {
    slope_filler {
      type: "constant"
      value: 1
    }
    bias_filler {
      type: "constant"
      value: 0
    }
    frozen: true
  }
}
layer {
  name: "inception_4a/relu_double_3x3_reduce"
  type: "ReLU"
  bottom: "inception_4a/double_3x3_reduce_bn"
  top: "inception_4a/double_3x3_reduce_bn"
}
layer {
  name: "inception_4a/double_3x3_1"
  type: "Convolution"
  bottom: "inception_4a/double_3x3_reduce_bn"
  top: "inception_4a/double_3x3_1"
  param {
    lr_mult: 1
    decay_mult: 1
  }
  param {
    lr_mult: 2
    decay_mult: 0
  }
  convolution_param {
    num_output: 128
    pad: 1
    kernel_size: 3
    weight_filler {
      type: "xavier"
    }
    bias_filler {
      type: "constant"
      value: 0.2
    }
  }
}
layer {
  name: "inception_4a/double_3x3_1_bn"
  type: "BN"
  bottom: "inception_4a/double_3x3_1"
  top: "inception_4a/double_3x3_1_bn"
  param {
    lr_mult: 1
    decay_mult: 0
  }
  param {
    lr_mult: 1
    decay_mult: 0
  }
  bn_param {
    slope_filler {
      type: "constant"
      value: 1
    }
    bias_filler {
      type: "constant"
      value: 0
    }
    frozen: true
  }
}
layer {
  name: "inception_4a/relu_double_3x3_1"
  type: "ReLU"
  bottom: "inception_4a/double_3x3_1_bn"
  top: "inception_4a/double_3x3_1_bn"
}
layer {
  name: "inception_4a/double_3x3_2"
  type: "Convolution"
  bottom: "inception_4a/double_3x3_1_bn"
  top: "inception_4a/double_3x3_2"
  param {
    lr_mult: 1
    decay_mult: 1
  }
  param {
    lr_mult: 2
    decay_mult: 0
  }
  convolution_param {
    num_output: 128
    pad: 1
    kernel_size: 3
    weight_filler {
      type: "xavier"
    }
    bias_filler {
      type: "constant"
      value: 0.2
    }
  }
}
layer {
  name: "inception_4a/double_3x3_2_bn"
  type: "BN"
  bottom: "inception_4a/double_3x3_2"
  top: "inception_4a/double_3x3_2_bn"
  param {
    lr_mult: 1
    decay_mult: 0
  }
  param {
    lr_mult: 1
    decay_mult: 0
  }
  bn_param {
    slope_filler {
      type: "constant"
      value: 1
    }
    bias_filler {
      type: "constant"
      value: 0
    }
    frozen: true
  }
}
layer {
  name: "inception_4a/relu_double_3x3_2"
  type: "ReLU"
  bottom: "inception_4a/double_3x3_2_bn"
  top: "inception_4a/double_3x3_2_bn"
}
layer {
  name: "inception_4a/pool"
  type: "Pooling"
  bottom: "inception_3c/output"
  top: "inception_4a/pool"
  pooling_param {
    pool: AVE
    kernel_size: 3
    stride: 1
    pad: 1
  }
}
layer {
  name: "inception_4a/pool_proj"
  type: "Convolution"
  bottom: "inception_4a/pool"
  top: "inception_4a/pool_proj"
  param {
    lr_mult: 1
    decay_mult: 1
  }
  param {
    lr_mult: 2
    decay_mult: 0
  }
  convolution_param {
    num_output: 128
    kernel_size: 1
    weight_filler {
      type: "xavier"
    }
    bias_filler {
      type: "constant"
      value: 0.2
    }
  }
}
layer {
  name: "inception_4a/pool_proj_bn"
  type: "BN"
  bottom: "inception_4a/pool_proj"
  top: "inception_4a/pool_proj_bn"
  param {
    lr_mult: 1
    decay_mult: 0
  }
  param {
    lr_mult: 1
    decay_mult: 0
  }
  bn_param {
    slope_filler {
      type: "constant"
      value: 1
    }
    bias_filler {
      type: "constant"
      value: 0
    }
    frozen: true
  }
}
layer {
  name: "inception_4a/relu_pool_proj"
  type: "ReLU"
  bottom: "inception_4a/pool_proj_bn"
  top: "inception_4a/pool_proj_bn"
}
layer {
  name: "inception_4a/output"
  type: "Concat"
  bottom: "inception_4a/1x1_bn"
  bottom: "inception_4a/3x3_bn"
  bottom: "inception_4a/double_3x3_2_bn"
  bottom: "inception_4a/pool_proj_bn"
  top: "inception_4a/output"
}
layer {
  name: "inception_4b/1x1"
  type: "Convolution"
  bottom: "inception_4a/output"
  top: "inception_4b/1x1"
  param {
    lr_mult: 1
    decay_mult: 1
  }
  param {
    lr_mult: 2
    decay_mult: 0
  }
  convolution_param {
    num_output: 192
    kernel_size: 1
    weight_filler {
      type: "xavier"
    }
    bias_filler {
      type: "constant"
      value: 0.2
    }
  }
}
layer {
  name: "inception_4b/1x1_bn"
  type: "BN"
  bottom: "inception_4b/1x1"
  top: "inception_4b/1x1_bn"
  param {
    lr_mult: 1
    decay_mult: 0
  }
  param {
    lr_mult: 1
    decay_mult: 0
  }
  bn_pa
I1107 08:35:50.760565  5893 layer_factory.hpp:74] Creating layer data
I1107 08:35:50.760601  5893 net.cpp:94] Creating Layer data
I1107 08:35:50.760607  5893 net.cpp:120] 0
I1107 08:35:50.760613  5893 net.cpp:414] data -> data
I1107 08:35:50.760646  5893 net.cpp:414] data -> label
…
I1107 08:36:03.561311  5893 window_data_layer.cpp:159] class 197 has 12634 samples
I1107 08:36:03.561313  5893 window_data_layer.cpp:159] class 198 has 5083 samples
I1107 08:36:03.561317  5893 window_data_layer.cpp:159] class 199 has 10078 samples
I1107 08:36:03.561321  5893 window_data_layer.cpp:159] class 200 has 14286 samples
I1107 08:36:03.561326  5893 window_data_layer.cpp:163] Amount of context padding: 16
I1107 08:36:03.561332  5893 window_data_layer.cpp:166] Crop mode: warp
I1107 08:36:03.561347  5893 window_data_layer.cpp:176] output data size: 16,3,224,224
I1107 08:36:03.562638  5893 net.cpp:166] Top shape: 16 3 224 224 (2408448)
I1107 08:36:03.562656  5893 net.cpp:166] Top shape: 16 (16)
I1107 08:36:03.562685  5893 layer_factory.hpp:74] Creating layer conv1/7x7_s2
I1107 08:36:03.562712  5893 net.cpp:94] Creating Layer conv1/7x7_s2
I1107 08:36:03.562736  5893 net.cpp:458] conv1/7x7_s2 <- data
I1107 08:36:03.564162  5893 net.cpp:120] 0
I1107 08:36:03.564182  5893 net.cpp:126] This layer is inheriting previous layer's sync mode: 1
I1107 08:36:03.564196  5893 net.cpp:414] conv1/7x7_s2 -> conv1/7x7_s2
I1107 08:36:03.564218  5893 net.cpp:159] Setting up conv1/7x7_s2
I1107 08:36:03.817651  5893 cudnn_conv_layer.cpp:193] Reallocating workspace storage: 225816
I1107 08:36:03.817713  5893 net.cpp:166] Top shape: 16 64 112 112 (12845056)
I1107 08:36:03.817731  5893 layer_factory.hpp:74] Creating layer conv1/7x7_s2_bn
I1107 08:36:03.817751  5893 net.cpp:94] Creating Layer conv1/7x7_s2_bn
I1107 08:36:03.817757  5893 net.cpp:458] conv1/7x7_s2_bn <- conv1/7x7_s2
I1107 08:36:03.817764  5893 net.cpp:120] 0
I1107 08:36:03.817766  5893 net.cpp:126] This layer is inheriting previous layer's sync mode: 1
I1107 08:36:03.817772  5893 net.cpp:414] conv1/7x7_s2_bn -> conv1/7x7_s2_bn
I1107 08:36:03.817785  5893 net.cpp:159] Setting up conv1/7x7_s2_bn
I1107 08:36:03.817831  5893 net.cpp:166] Top shape: 16 64 112 112 (12845056)
I1107 08:36:03.817844  5893 layer_factory.hpp:74] Creating layer conv1/relu_7x7
I1107 08:36:03.817852  5893 net.cpp:94] Creating Layer conv1/relu_7x7
I1107 08:36:03.817857  5893 net.cpp:458] conv1/relu_7x7 <- conv1/7x7_s2_bn
I1107 08:36:03.817862  5893 net.cpp:120] 0
I1107 08:36:03.817864  5893 net.cpp:126] This layer is inheriting previous layer's sync mode: 1
I1107 08:36:03.817869  5893 net.cpp:403] conv1/relu_7x7 -> conv1/7x7_s2_bn (in-place)
I1107 08:36:03.817874  5893 net.cpp:159] Setting up conv1/relu_7x7
I1107 08:36:03.818336  5893 net.cpp:166] Top shape: 16 64 112 112 (12845056)
I1107 08:36:03.818349  5893 layer_factory.hpp:74] Creating layer pool1/3x3_s2
I1107 08:36:03.818377  5893 net.cpp:94] Creating Layer pool1/3x3_s2
I1107 08:36:03.818382  5893 net.cpp:458] pool1/3x3_s2 <- conv1/7x7_s2_bn
I1107 08:36:03.818387  5893 net.cpp:120] 0
I1107 08:36:03.818392  5893 net.cpp:126] This layer is inheriting previous layer's sync mode: 1
I1107 08:36:03.818410  5893 net.cpp:414] pool1/3x3_s2 -> pool1/3x3_s2
I1107 08:36:03.818419  5893 net.cpp:159] Setting up pool1/3x3_s2
I1107 08:36:03.818682  5893 net.cpp:166] Top shape: 16 64 56 56 (3211264)
I1107 08:36:03.818707  5893 layer_factory.hpp:74] Creating layer conv2/3x3_reduce
I1107 08:36:03.818733  5893 net.cpp:94] Creating Layer conv2/3x3_reduce
I1107 08:36:03.818750  5893 net.cpp:458] conv2/3x3_reduce <- pool1/3x3_s2
I1107 08:36:03.818756  5893 net.cpp:120] 0
I1107 08:36:03.818759  5893 net.cpp:126] This layer is inheriting previous layer's sync mode: 1
I1107 08:36:03.818765  5893 net.cpp:414] conv2/3x3_reduce -> conv2/3x3_reduce
I1107 08:36:03.818773  5893 net.cpp:159] Setting up conv2/3x3_reduce
I1107 08:36:03.819615  5893 cudnn_conv_layer.cpp:193] Reallocating workspace storage: 63000
I1107 08:36:03.819645  5893 net.cpp:166] Top shape: 16 64 56 56 (3211264)
I1107 08:36:03.819658  5893 layer_factory.hpp:74] Creating layer conv2/3x3_reduce_bn
I1107 08:36:03.819667  5893 net.cpp:94] Creating Layer conv2/3x3_reduce_bn
I1107 08:36:03.819672  5893 net.cpp:458] conv2/3x3_reduce_bn <- conv2/3x3_reduce
I1107 08:36:03.819692  5893 net.cpp:120] 0
I1107 08:36:03.819696  5893 net.cpp:126] This layer is inheriting previous layer's sync mode: 1
I1107 08:36:03.819703  5893 net.cpp:414] conv2/3x3_reduce_bn -> conv2/3x3_reduce_bn
I1107 08:36:03.819711  5893 net.cpp:159] Setting up conv2/3x3_reduce_bn
I1107 08:36:03.819735  5893 net.cpp:166] Top shape: 16 64 56 56 (3211264)
I1107 08:36:03.819749  5893 layer_factory.hpp:74] Creating layer conv2/relu_3x3_reduce
I1107 08:36:03.819761  5893 net.cpp:94] Creating Layer conv2/relu_3x3_reduce
I1107 08:36:03.819766  5893 net.cpp:458] conv2/relu_3x3_reduce <- conv2/3x3_reduce_bn
I1107 08:36:03.819772  5893 net.cpp:120] 0
I1107 08:36:03.819775  5893 net.cpp:126] This layer is inheriting previous layer's sync mode: 1
I1107 08:36:03.819780  5893 net.cpp:403] conv2/relu_3x3_reduce -> conv2/3x3_reduce_bn (in-place)
I1107 08:36:03.819787  5893 net.cpp:159] Setting up conv2/relu_3x3_reduce
I1107 08:36:03.820000  5893 net.cpp:166] Top shape: 16 64 56 56 (3211264)
I1107 08:36:03.820013  5893 layer_factory.hpp:74] Creating layer conv2/3x3
I1107 08:36:03.820024  5893 net.cpp:94] Creating Layer conv2/3x3
I1107 08:36:03.820029  5893 net.cpp:458] conv2/3x3 <- conv2/3x3_reduce_bn
I1107 08:36:03.820034  5893 net.cpp:120] 0
I1107 08:36:03.820037  5893 net.cpp:126] This layer is inheriting previous layer's sync mode: 1
I1107 08:36:03.820044  5893 net.cpp:414] conv2/3x3 -> conv2/3x3
I1107 08:36:03.820052  5893 net.cpp:159] Setting up conv2/3x3
I1107 08:36:03.821539  5893 cudnn_conv_layer.cpp:193] Reallocating workspace storage: 63000
I1107 08:36:03.821557  5893 net.cpp:166] Top shape: 16 192 56 56 (9633792)
I1107 08:36:03.821581  5893 layer_factory.hpp:74] Creating layer conv2/3x3_bn
I1107 08:36:03.821593  5893 net.cpp:94] Creating Layer conv2/3x3_bn
I1107 08:36:03.821598  5893 net.cpp:458] conv2/3x3_bn <- conv2/3x3
I1107 08:36:03.821604  5893 net.cpp:120] 0
I1107 08:36:03.821607  5893 net.cpp:126] This layer is inheriting previous layer's sync mode: 1
I1107 08:36:03.821614  5893 net.cpp:414] conv2/3x3_bn -> conv2/3x3_bn
I1107 08:36:03.821625  5893 net.cpp:159] Setting up conv2/3x3_bn
I1107 08:36:03.821653  5893 net.cpp:166] Top shape: 16 192 56 56 (9633792)
I1107 08:36:03.821671  5893 layer_factory.hpp:74] Creating layer conv2/relu_3x3
I1107 08:36:03.821678  5893 net.cpp:94] Creating Layer conv2/relu_3x3
I1107 08:36:03.821682  5893 net.cpp:458] conv2/relu_3x3 <- conv2/3x3_bn
I1107 08:36:03.821689  5893 net.cpp:120] 0
I1107 08:36:03.821692  5893 net.cpp:126] This layer is inheriting previous layer's sync mode: 1
I1107 08:36:03.821698  5893 net.cpp:403] conv2/relu_3x3 -> conv2/3x3_bn (in-place)
I1107 08:36:03.821704  5893 net.cpp:159] Setting up conv2/relu_3x3
I1107 08:36:03.822021  5893 net.cpp:166] Top shape: 16 192 56 56 (9633792)
I1107 08:36:03.822032  5893 layer_factory.hpp:74] Creating layer pool2/3x3_s2
I1107 08:36:03.822057  5893 net.cpp:94] Creating Layer pool2/3x3_s2
I1107 08:36:03.822062  5893 net.cpp:458] pool2/3x3_s2 <- conv2/3x3_bn
I1107 08:36:03.822067  5893 net.cpp:120] 0
I1107 08:36:03.822072  5893 net.cpp:126] This layer is inheriting previous layer's sync mode: 1
I1107 08:36:03.822077  5893 net.cpp:414] pool2/3x3_s2 -> pool2/3x3_s2
I1107 08:36:03.822083  5893 net.cpp:159] Setting up pool2/3x3_s2
I1107 08:36:03.822268  5893 net.cpp:166] Top shape: 16 192 28 28 (2408448)
I1107 08:36:03.822280  5893 layer_factory.hpp:74] Creating layer pool2/3x3_s2_pool2/3x3_s2_0_split
I1107 08:36:03.822293  5893 net.cpp:94] Creating Layer pool2/3x3_s2_pool2/3x3_s2_0_split
I1107 08:36:03.822299  5893 net.cpp:458] pool2/3x3_s2_pool2/3x3_s2_0_split <- pool2/3x3_s2
I1107 08:36:03.822305  5893 net.cpp:120] 0
I1107 08:36:03.822309  5893 net.cpp:126] This layer is inheriting previous layer's sync mode: 1
I1107 08:36:03.822315  5893 net.cpp:414] pool2/3x3_s2_pool2/3x3_s2_0_split -> pool2/3x3_s2_pool2/3x3_s2_0_split_0
I1107 08:36:03.822324  5893 net.cpp:414] pool2/3x3_s2_pool2/3x3_s2_0_split -> pool2/3x3_s2_pool2/3x3_s2_0_split_1
I1107 08:36:03.822330  5893 net.cpp:414] pool2/3x3_s2_pool2/3x3_s2_0_split -> pool2/3x3_s2_pool2/3x3_s2_0_split_2
I1107 08:36:03.822338  5893 net.cpp:414] pool2/3x3_s2_pool2/3x3_s2_0_split -> pool2/3x3_s2_pool2/3x3_s2_0_split_3
I1107 08:36:03.822345  5893 net.cpp:159] Setting up pool2/3x3_s2_pool2/3x3_s2_0_split
I1107 08:36:03.822353  5893 net.cpp:166] Top shape: 16 192 28 28 (2408448)
I1107 08:36:03.822358  5893 net.cpp:166] Top shape: 16 192 28 28 (2408448)
I1107 08:36:03.822365  5893 net.cpp:166] Top shape: 16 192 28 28 (2408448)
I1107 08:36:03.822370  5893 net.cpp:166] Top shape: 16 192 28 28 (2408448)
I1107 08:36:03.822374  5893 layer_factory.hpp:74] Creating layer inception_3a/1x1
I1107 08:36:03.822387  5893 net.cpp:94] Creating Layer inception_3a/1x1
I1107 08:36:03.822393  5893 net.cpp:458] inception_3a/1x1 <- pool2/3x3_s2_pool2/3x3_s2_0_split_0
I1107 08:36:03.822403  5893 net.cpp:120] 0
I1107 08:36:03.822407  5893 net.cpp:126] This layer is inheriting previous layer's sync mode: 1
I1107 08:36:03.822427  5893 net.cpp:414] inception_3a/1x1 -> inception_3a/1x1
I1107 08:36:03.822434  5893 net.cpp:159] Setting up inception_3a/1x1
I1107 08:36:03.823436  5893 cudnn_conv_layer.cpp:193] Reallocating workspace storage: 20664
I1107 08:36:03.823453  5893 net.cpp:166] Top shape: 16 64 28 28 (802816)
I1107 08:36:03.823463  5893 layer_factory.hpp:74] Creating layer inception_3a/1x1_bn
I1107 08:36:03.823475  5893 net.cpp:94] Creating Layer inception_3a/1x1_bn
I1107 08:36:03.823482  5893 net.cpp:458] inception_3a/1x1_bn <- inception_3a/1x1
I1107 08:36:03.823487  5893 net.cpp:120] 0
I1107 08:36:03.823492  5893 net.cpp:126] This layer is inheriting previous layer's sync mode: 1
I1107 08:36:03.823498  5893 net.cpp:414] inception_3a/1x1_bn -> inception_3a/1x1_bn
I1107 08:36:03.823505  5893 net.cpp:159] Setting up inception_3a/1x1_bn
I1107 08:36:03.823525  5893 net.cpp:166] Top shape: 16 64 28 28 (802816)
I1107 08:36:03.823537  5893 layer_factory.hpp:74] Creating layer inception_3a/relu_1x1
I1107 08:36:03.823544  5893 net.cpp:94] Creating Layer inception_3a/relu_1x1
I1107 08:36:03.823547  5893 net.cpp:458] inception_3a/relu_1x1 <- inception_3a/1x1_bn
I1107 08:36:03.823552  5893 net.cpp:120] 0
I1107 08:36:03.823555  5893 net.cpp:126] This layer is inheriting previous layer's sync mode: 1
I1107 08:36:03.823560  5893 net.cpp:403] inception_3a/relu_1x1 -> inception_3a/1x1_bn (in-place)
I1107 08:36:03.823565  5893 net.cpp:159] Setting up inception_3a/relu_1x1
I1107 08:36:03.823917  5893 net.cpp:166] Top shape: 16 64 28 28 (802816)
I1107 08:36:03.823930  5893 layer_factory.hpp:74] Creating layer inception_3a/3x3_reduce
I1107 08:36:03.823942  5893 net.cpp:94] Creating Layer inception_3a/3x3_reduce
I1107 08:36:03.823946  5893 net.cpp:458] inception_3a/3x3_reduce <- pool2/3x3_s2_pool2/3x3_s2_0_split_1
I1107 08:36:03.823953  5893 net.cpp:120] 0
I1107 08:36:03.823957  5893 net.cpp:126] This layer is inheriting previous layer's sync mode: 1
I1107 08:36:03.823962  5893 net.cpp:414] inception_3a/3x3_reduce -> inception_3a/3x3_reduce
I1107 08:36:03.823987  5893 net.cpp:159] Setting up inception_3a/3x3_reduce
I1107 08:36:03.824764  5893 cudnn_conv_layer.cpp:193] Reallocating workspace storage: 20664
I1107 08:36:03.824781  5893 net.cpp:166] Top shape: 16 64 28 28 (802816)
I1107 08:36:03.824790  5893 layer_factory.hpp:74] Creating layer inception_3a/3x3_reduce_bn
I1107 08:36:03.824800  5893 net.cpp:94] Creating Layer inception_3a/3x3_reduce_bn
I1107 08:36:03.824805  5893 net.cpp:458] inception_3a/3x3_reduce_bn <- inception_3a/3x3_reduce
I1107 08:36:03.824810  5893 net.cpp:120] 0
I1107 08:36:03.824812  5893 net.cpp:126] This layer is inheriting previous layer's sync mode: 1
I1107 08:36:03.824820  5893 net.cpp:414] inception_3a/3x3_reduce_bn -> inception_3a/3x3_reduce_bn
I1107 08:36:03.824827  5893 net.cpp:159] Setting up inception_3a/3x3_reduce_bn
I1107 08:36:03.824846  5893 net.cpp:166] Top shape: 16 64 28 28 (802816)
I1107 08:36:03.824859  5893 layer_factory.hpp:74] Creating layer inception_3a/relu_3x3_reduce
I1107 08:36:03.824867  5893 net.cpp:94] Creating Layer inception_3a/relu_3x3_reduce
I1107 08:36:03.824872  5893 net.cpp:458] inception_3a/relu_3x3_reduce <- inception_3a/3x3_reduce_bn
I1107 08:36:03.824877  5893 net.cpp:120] 0
I1107 08:36:03.824880  5893 net.cpp:126] This layer is inheriting previous layer's sync mode: 1
I1107 08:36:03.824885  5893 net.cpp:403] inception_3a/relu_3x3_reduce -> inception_3a/3x3_reduce_bn (in-place)
I1107 08:36:03.824892  5893 net.cpp:159] Setting up inception_3a/relu_3x3_reduce
I1107 08:36:03.825217  5893 net.cpp:166] Top shape: 16 64 28 28 (802816)
I1107 08:36:03.825229  5893 layer_factory.hpp:74] Creating layer inception_3a/3x3
I1107 08:36:03.825253  5893 net.cpp:94] Creating Layer inception_3a/3x3
I1107 08:36:03.825258  5893 net.cpp:458] inception_3a/3x3 <- inception_3a/3x3_reduce_bn
I1107 08:36:03.825263  5893 net.cpp:120] 0
I1107 08:36:03.825268  5893 net.cpp:126] This layer is inheriting previous layer's sync mode: 1
I1107 08:36:03.825274  5893 net.cpp:414] inception_3a/3x3 -> inception_3a/3x3
I1107 08:36:03.825296  5893 net.cpp:159] Setting up inception_3a/3x3
I1107 08:36:03.826474  5893 cudnn_conv_layer.cpp:193] Reallocating workspace storage: 20664
I1107 08:36:03.826491  5893 net.cpp:166] Top shape: 16 64 28 28 (802816)
I1107 08:36:03.826517  5893 layer_factory.hpp:74] Creating layer inception_3a/3x3_bn
I1107 08:36:03.826527  5893 net.cpp:94] Creating Layer inception_3a/3x3_bn
I1107 08:36:03.826532  5893 net.cpp:458] inception_3a/3x3_bn <- inception_3a/3x3
I1107 08:36:03.826539  5893 net.cpp:120] 0
I1107 08:36:03.826542  5893 net.cpp:126] This layer is inheriting previous layer's sync mode: 1
I1107 08:36:03.826550  5893 net.cpp:414] inception_3a/3x3_bn -> inception_3a/3x3_bn
I1107 08:36:03.826558  5893 net.cpp:159] Setting up inception_3a/3x3_bn
I1107 08:36:03.826581  5893 net.cpp:166] Top shape: 16 64 28 28 (802816)
I1107 08:36:03.826608  5893 layer_factory.hpp:74] Creating layer inception_3a/relu_3x3
I1107 08:36:03.826619  5893 net.cpp:94] Creating Layer inception_3a/relu_3x3
I1107 08:36:03.826624  5893 net.cpp:458] inception_3a/relu_3x3 <- inception_3a/3x3_bn
I1107 08:36:03.826629  5893 net.cpp:120] 0
I1107 08:36:03.826633  5893 net.cpp:126] This layer is inheriting previous layer's sync mode: 1
I1107 08:36:03.826638  5893 net.cpp:403] inception_3a/relu_3x3 -> inception_3a/3x3_bn (in-place)
I1107 08:36:03.826645  5893 net.cpp:159] Setting up inception_3a/relu_3x3
I1107 08:36:03.826851  5893 net.cpp:166] Top shape: 16 64 28 28 (802816)
I1107 08:36:03.826861  5893 layer_factory.hpp:74] Creating layer inception_3a/double_3x3_reduce
I1107 08:36:03.826871  5893 net.cpp:94] Creating Layer inception_3a/double_3x3_reduce
I1107 08:36:03.826876  5893 net.cpp:458] inception_3a/double_3x3_reduce <- pool2/3x3_s2_pool2/3x3_s2_0_split_2
I1107 08:36:03.826882  5893 net.cpp:120] 0
I1107 08:36:03.826886  5893 net.cpp:126] This layer is inheriting previous layer's sync mode: 1
I1107 08:36:03.826894  5893 net.cpp:414] inception_3a/double_3x3_reduce -> inception_3a/double_3x3_reduce
I1107 08:36:03.826902  5893 net.cpp:159] Setting up inception_3a/double_3x3_reduce
I1107 08:36:03.827955  5893 cudnn_conv_layer.cpp:193] Reallocating workspace storage: 20664
I1107 08:36:03.827985  5893 net.cpp:166] Top shape: 16 64 28 28 (802816)
I1107 08:36:03.827996  5893 layer_factory.hpp:74] Creating layer inception_3a/double_3x3_reduce_bn
I1107 08:36:03.828008  5893 net.cpp:94] Creating Layer inception_3a/double_3x3_reduce_bn
I1107 08:36:03.828013  5893 net.cpp:458] inception_3a/double_3x3_reduce_bn <- inception_3a/double_3x3_reduce
I1107 08:36:03.828019  5893 net.cpp:120] 0
I1107 08:36:03.828022  5893 net.cpp:126] This layer is inheriting previous layer's sync mode: 1
I1107 08:36:03.828029  5893 net.cpp:414] inception_3a/double_3x3_reduce_bn -> inception_3a/double_3x3_reduce_bn
I1107 08:36:03.828038  5893 net.cpp:159] Setting up inception_3a/double_3x3_reduce_bn
I1107 08:36:03.828059  5893 net.cpp:166] Top shape: 16 64 28 28 (802816)
I1107 08:36:03.828070  5893 layer_factory.hpp:74] Creating layer inception_3a/relu_double_3x3_reduce
I1107 08:36:03.828078  5893 net.cpp:94] Creating Layer inception_3a/relu_double_3x3_reduce
I1107 08:36:03.828083  5893 net.cpp:458] inception_3a/relu_double_3x3_reduce <- inception_3a/double_3x3_reduce_bn
I1107 08:36:03.828088  5893 net.cpp:120] 0
I1107 08:36:03.828091  5893 net.cpp:126] This layer is inheriting previous layer's sync mode: 1
I1107 08:36:03.828096  5893 net.cpp:403] inception_3a/relu_double_3x3_reduce -> inception_3a/double_3x3_reduce_bn (in-place)
I1107 08:36:03.828101  5893 net.cpp:159] Setting up inception_3a/relu_double_3x3_reduce
I1107 08:36:03.828433  5893 net.cpp:166] Top shape: 16 64 28 28 (802816)
I1107 08:36:03.828446  5893 layer_factory.hpp:74] Creating layer inception_3a/double_3x3_1
I1107 08:36:03.828459  5893 net.cpp:94] Creating Layer inception_3a/double_3x3_1
I1107 08:36:03.828464  5893 net.cpp:458] inception_3a/double_3x3_1 <- inception_3a/double_3x3_reduce_bn
I1107 08:36:03.828470  5893 net.cpp:120] 0
I1107 08:36:03.828474  5893 net.cpp:126] This layer is inheriting previous layer's sync mode: 1
I1107 08:36:03.828498  5893 net.cpp:414] inception_3a/double_3x3_1 -> inception_3a/double_3x3_1
I1107 08:36:03.828510  5893 net.cpp:159] Setting up inception_3a/double_3x3_1
I1107 08:36:03.829866  5893 cudnn_conv_layer.cpp:193] Reallocating workspace storage: 20664
I1107 08:36:03.829885  5893 net.cpp:166] Top shape: 16 96 28 28 (1204224)
I1107 08:36:03.829895  5893 layer_factory.hpp:74] Creating layer inception_3a/double_3x3_1_bn
I1107 08:36:03.829907  5893 net.cpp:94] Creating Layer inception_3a/double_3x3_1_bn
I1107 08:36:03.829916  5893 net.cpp:458] inception_3a/double_3x3_1_bn <- inception_3a/double_3x3_1
I1107 08:36:03.829924  5893 net.cpp:120] 0
I1107 08:36:03.829928  5893 net.cpp:126] This layer is inheriting previous layer's sync mode: 1
I1107 08:36:03.829936  5893 net.cpp:414] inception_3a/double_3x3_1_bn -> inception_3a/double_3x3_1_bn
I1107 08:36:03.829946  5893 net.cpp:159] Setting up inception_3a/double_3x3_1_bn
I1107 08:36:03.829968  5893 net.cpp:166] Top shape: 16 96 28 28 (1204224)
I1107 08:36:03.829979  5893 layer_factory.hpp:74] Creating layer inception_3a/relu_double_3x3_1
I1107 08:36:03.829988  5893 net.cpp:94] Creating Layer inception_3a/relu_double_3x3_1
I1107 08:36:03.829991  5893 net.cpp:458] inception_3a/relu_double_3x3_1 <- inception_3a/double_3x3_1_bn
I1107 08:36:03.829996  5893 net.cpp:120] 0
I1107 08:36:03.830000  5893 net.cpp:126] This layer is inheriting previous layer's sync mode: 1
I1107 08:36:03.830005  5893 net.cpp:403] inception_3a/relu_double_3x3_1 -> inception_3a/double_3x3_1_bn (in-place)
I1107 08:36:03.830011  5893 net.cpp:159] Setting up inception_3a/relu_double_3x3_1
I1107 08:36:03.830334  5893 net.cpp:166] Top shape: 16 96 28 28 (1204224)
I1107 08:36:03.830348  5893 layer_factory.hpp:74] Creating layer inception_3a/double_3x3_2
I1107 08:36:03.830359  5893 net.cpp:94] Creating Layer inception_3a/double_3x3_2
I1107 08:36:03.830365  5893 net.cpp:458] inception_3a/double_3x3_2 <- inception_3a/double_3x3_1_bn
I1107 08:36:03.830371  5893 net.cpp:120] 0
I1107 08:36:03.830376  5893 net.cpp:126] This layer is inheriting previous layer's sync mode: 1
I1107 08:36:03.830384  5893 net.cpp:414] inception_3a/double_3x3_2 -> inception_3a/double_3x3_2
I1107 08:36:03.830392  5893 net.cpp:159] Setting up inception_3a/double_3x3_2
I1107 08:36:03.831840  5893 cudnn_conv_layer.cpp:193] Reallocating workspace storage: 240721920
I1107 08:36:03.831858  5893 net.cpp:166] Top shape: 16 96 28 28 (1204224)
I1107 08:36:03.831883  5893 layer_factory.hpp:74] Creating layer inception_3a/double_3x3_2_bn
I1107 08:36:03.831895  5893 net.cpp:94] Creating Layer inception_3a/double_3x3_2_bn
I1107 08:36:03.831900  5893 net.cpp:458] inception_3a/double_3x3_2_bn <- inception_3a/double_3x3_2
I1107 08:36:03.831907  5893 net.cpp:120] 0
I1107 08:36:03.831912  5893 net.cpp:126] This layer is inheriting previous layer's sync mode: 1
I1107 08:36:03.831919  5893 net.cpp:414] inception_3a/double_3x3_2_bn -> inception_3a/double_3x3_2_bn
I1107 08:36:03.831928  5893 net.cpp:159] Setting up inception_3a/double_3x3_2_bn
I1107 08:36:03.831950  5893 net.cpp:166] Top shape: 16 96 28 28 (1204224)
I1107 08:36:03.831974  5893 layer_factory.hpp:74] Creating layer inception_3a/relu_double_3x3_2
I1107 08:36:03.831981  5893 net.cpp:94] Creating Layer inception_3a/relu_double_3x3_2
I1107 08:36:03.831985  5893 net.cpp:458] inception_3a/relu_double_3x3_2 <- inception_3a/double_3x3_2_bn
I1107 08:36:03.831990  5893 net.cpp:120] 0
I1107 08:36:03.831995  5893 net.cpp:126] This layer is inheriting previous layer's sync mode: 1
I1107 08:36:03.832000  5893 net.cpp:403] inception_3a/relu_double_3x3_2 -> inception_3a/double_3x3_2_bn (in-place)
I1107 08:36:03.832005  5893 net.cpp:159] Setting up inception_3a/relu_double_3x3_2
I1107 08:36:03.832200  5893 net.cpp:166] Top shape: 16 96 28 28 (1204224)
I1107 08:36:03.832211  5893 layer_factory.hpp:74] Creating layer inception_3a/pool
I1107 08:36:03.832216  5893 layer_factory.cpp:55] CUDNN does not support padding or multiple tops. Using Caffe's own pooling layer.
I1107 08:36:03.832237  5893 net.cpp:94] Creating Layer inception_3a/pool
I1107 08:36:03.832242  5893 net.cpp:458] inception_3a/pool <- pool2/3x3_s2_pool2/3x3_s2_0_split_3
I1107 08:36:03.832248  5893 net.cpp:120] 0
I1107 08:36:03.832252  5893 net.cpp:126] This layer is inheriting previous layer's sync mode: 1
I1107 08:36:03.832258  5893 net.cpp:414] inception_3a/pool -> inception_3a/pool
I1107 08:36:03.832267  5893 net.cpp:159] Setting up inception_3a/pool
I1107 08:36:03.832274  5893 net.cpp:166] Top shape: 16 192 28 28 (2408448)
I1107 08:36:03.832279  5893 layer_factory.hpp:74] Creating layer inception_3a/pool_proj
I1107 08:36:03.832293  5893 net.cpp:94] Creating Layer inception_3a/pool_proj
I1107 08:36:03.832299  5893 net.cpp:458] inception_3a/pool_proj <- inception_3a/pool
I1107 08:36:03.832304  5893 net.cpp:120] 0
I1107 08:36:03.832307  5893 net.cpp:126] This layer is inheriting previous layer's sync mode: 1
I1107 08:36:03.832314  5893 net.cpp:414] inception_3a/pool_proj -> inception_3a/pool_proj
I1107 08:36:03.832322  5893 net.cpp:159] Setting up inception_3a/pool_proj
I1107 08:36:03.833209  5893 cudnn_conv_layer.cpp:193] Reallocating workspace storage: 20664
I1107 08:36:03.833227  5893 net.cpp:166] Top shape: 16 32 28 28 (401408)
I1107 08:36:03.833250  5893 layer_factory.hpp:74] Creating layer inception_3a/pool_proj_bn
I1107 08:36:03.833261  5893 net.cpp:94] Creating Layer inception_3a/pool_proj_bn
I1107 08:36:03.833266  5893 net.cpp:458] inception_3a/pool_proj_bn <- inception_3a/pool_proj
I1107 08:36:03.833271  5893 net.cpp:120] 0
I1107 08:36:03.833274  5893 net.cpp:126] This layer is inheriting previous layer's sync mode: 1
I1107 08:36:03.833281  5893 net.cpp:414] inception_3a/pool_proj_bn -> inception_3a/pool_proj_bn
I1107 08:36:03.833290  5893 net.cpp:159] Setting up inception_3a/pool_proj_bn
I1107 08:36:03.833310  5893 net.cpp:166] Top shape: 16 32 28 28 (401408)
I1107 08:36:03.833323  5893 layer_factory.hpp:74] Creating layer inception_3a/relu_pool_proj
I1107 08:36:03.833329  5893 net.cpp:94] Creating Layer inception_3a/relu_pool_proj
I1107 08:36:03.833333  5893 net.cpp:458] inception_3a/relu_pool_proj <- inception_3a/pool_proj_bn
I1107 08:36:03.833339  5893 net.cpp:120] 0
I1107 08:36:03.833343  5893 net.cpp:126] This layer is inheriting previous layer's sync mode: 1
I1107 08:36:03.833348  5893 net.cpp:403] inception_3a/relu_pool_proj -> inception_3a/pool_proj_bn (in-place)
I1107 08:36:03.833354  5893 net.cpp:159] Setting up inception_3a/relu_pool_proj
I1107 08:36:03.833709  5893 net.cpp:166] Top shape: 16 32 28 28 (401408)
I1107 08:36:03.833724  5893 layer_factory.hpp:74] Creating layer inception_3a/output
I1107 08:36:03.833734  5893 net.cpp:94] Creating Layer inception_3a/output
I1107 08:36:03.833739  5893 net.cpp:458] inception_3a/output <- inception_3a/1x1_bn
I1107 08:36:03.833745  5893 net.cpp:458] inception_3a/output <- inception_3a/3x3_bn
I1107 08:36:03.833750  5893 net.cpp:458] inception_3a/output <- inception_3a/double_3x3_2_bn
I1107 08:36:03.833756  5893 net.cpp:458] inception_3a/output <- inception_3a/pool_proj_bn
I1107 08:36:03.833760  5893 net.cpp:120] 0
I1107 08:36:03.833765  5893 net.cpp:126] This layer is inheriting previous layer's sync mode: 1
I1107 08:36:03.833770  5893 net.cpp:414] inception_3a/output -> inception_3a/output
I1107 08:36:03.833777  5893 net.cpp:159] Setting up inception_3a/output
I1107 08:36:03.833788  5893 net.cpp:166] Top shape: 16 256 28 28 (3211264)
I1107 08:36:03.833794  5893 layer_factory.hpp:74] Creating layer inception_3a/output_inception_3a/output_0_split
I1107 08:36:03.833802  5893 net.cpp:94] Creating Layer inception_3a/output_inception_3a/output_0_split
I1107 08:36:03.833806  5893 net.cpp:458] inception_3a/output_inception_3a/output_0_split <- inception_3a/output
I1107 08:36:03.833812  5893 net.cpp:120] 0
I1107 08:36:03.833817  5893 net.cpp:126] This layer is inheriting previous layer's sync mode: 1
I1107 08:36:03.833822  5893 net.cpp:414] inception_3a/output_inception_3a/output_0_split -> inception_3a/output_inception_3a/output_0_split_0
I1107 08:36:03.833830  5893 net.cpp:414] inception_3a/output_inception_3a/output_0_split -> inception_3a/output_inception_3a/output_0_split_1
I1107 08:36:03.833853  5893 net.cpp:414] inception_3a/output_inception_3a/output_0_split -> inception_3a/output_inception_3a/output_0_split_2
I1107 08:36:03.833865  5893 net.cpp:414] inception_3a/output_inception_3a/output_0_split -> inception_3a/output_inception_3a/output_0_split_3
I1107 08:36:03.833871  5893 net.cpp:159] Setting up inception_3a/output_inception_3a/output_0_split
I1107 08:36:03.833879  5893 net.cpp:166] Top shape: 16 256 28 28 (3211264)
I1107 08:36:03.833884  5893 net.cpp:166] Top shape: 16 256 28 28 (3211264)
I1107 08:36:03.833889  5893 net.cpp:166] Top shape: 16 256 28 28 (3211264)
I1107 08:36:03.833894  5893 net.cpp:166] Top shape: 16 256 28 28 (3211264)
I1107 08:36:03.833899  5893 layer_factory.hpp:74] Creating layer inception_3b/1x1
I1107 08:36:03.833907  5893 net.cpp:94] Creating Layer inception_3b/1x1
I1107 08:36:03.833911  5893 net.cpp:458] inception_3b/1x1 <- inception_3a/output_inception_3a/output_0_split_0
I1107 08:36:03.833916  5893 net.cpp:120] 0
I1107 08:36:03.833920  5893 net.cpp:126] This layer is inheriting previous layer's sync mode: 1
I1107 08:36:03.833926  5893 net.cpp:414] inception_3b/1x1 -> inception_3b/1x1
I1107 08:36:03.833933  5893 net.cpp:159] Setting up inception_3b/1x1
I1107 08:36:03.834717  5893 cudnn_conv_layer.cpp:193] Reallocating workspace storage: 20664
I1107 08:36:03.834734  5893 net.cpp:166] Top shape: 16 64 28 28 (802816)
I1107 08:36:03.834743  5893 layer_factory.hpp:74] Creating layer inception_3b/1x1_bn
I1107 08:36:03.834754  5893 net.cpp:94] Creating Layer inception_3b/1x1_bn
I1107 08:36:03.834759  5893 net.cpp:458] inception_3b/1x1_bn <- inception_3b/1x1
I1107 08:36:03.834764  5893 net.cpp:120] 0
I1107 08:36:03.834769  5893 net.cpp:126] This layer is inheriting previous layer's sync mode: 1
I1107 08:36:03.834774  5893 net.cpp:414] inception_3b/1x1_bn -> inception_3b/1x1_bn
I1107 08:36:03.834784  5893 net.cpp:159] Setting up inception_3b/1x1_bn
I1107 08:36:03.834803  5893 net.cpp:166] Top shape: 16 64 28 28 (802816)
I1107 08:36:03.834821  5893 layer_factory.hpp:74] Creating layer inception_3b/relu_1x1
I1107 08:36:03.834831  5893 net.cpp:94] Creating Layer inception_3b/relu_1x1
I1107 08:36:03.834836  5893 net.cpp:458] inception_3b/relu_1x1 <- inception_3b/1x1_bn
I1107 08:36:03.834841  5893 net.cpp:120] 0
I1107 08:36:03.834846  5893 net.cpp:126] This layer is inheriting previous layer's sync mode: 1
I1107 08:36:03.834849  5893 net.cpp:403] inception_3b/relu_1x1 -> inception_3b/1x1_bn (in-place)
I1107 08:36:03.834856  5893 net.cpp:159] Setting up inception_3b/relu_1x1
I1107 08:36:03.835278  5893 net.cpp:166] Top shape: 16 64 28 28 (802816)
I1107 08:36:03.835292  5893 layer_factory.hpp:74] Creating layer inception_3b/3x3_reduce
I1107 08:36:03.835304  5893 net.cpp:94] Creating Layer inception_3b/3x3_reduce
I1107 08:36:03.835309  5893 net.cpp:458] inception_3b/3x3_reduce <- inception_3a/output_inception_3a/output_0_split_1
I1107 08:36:03.835315  5893 net.cpp:120] 0
I1107 08:36:03.835319  5893 net.cpp:126] This layer is inheriting previous layer's sync mode: 1
I1107 08:36:03.835327  5893 net.cpp:414] inception_3b/3x3_reduce -> inception_3b/3x3_reduce
I1107 08:36:03.835336  5893 net.cpp:159] Setting up inception_3b/3x3_reduce
I1107 08:36:03.836299  5893 cudnn_conv_layer.cpp:193] Reallocating workspace storage: 20664
I1107 08:36:03.836316  5893 net.cpp:166] Top shape: 16 64 28 28 (802816)
I1107 08:36:03.836325  5893 layer_factory.hpp:74] Creating layer inception_3b/3x3_reduce_bn
I1107 08:36:03.836336  5893 net.cpp:94] Creating Layer inception_3b/3x3_reduce_bn
I1107 08:36:03.836343  5893 net.cpp:458] inception_3b/3x3_reduce_bn <- inception_3b/3x3_reduce
I1107 08:36:03.836349  5893 net.cpp:120] 0
I1107 08:36:03.836354  5893 net.cpp:126] This layer is inheriting previous layer's sync mode: 1
I1107 08:36:03.836360  5893 net.cpp:414] inception_3b/3x3_reduce_bn -> inception_3b/3x3_reduce_bn
I1107 08:36:03.836370  5893 net.cpp:159] Setting up inception_3b/3x3_reduce_bn
I1107 08:36:03.836407  5893 net.cpp:166] Top shape: 16 64 28 28 (802816)
I1107 08:36:03.836419  5893 layer_factory.hpp:74] Creating layer inception_3b/relu_3x3_reduce
I1107 08:36:03.836428  5893 net.cpp:94] Creating Layer inception_3b/relu_3x3_reduce
I1107 08:36:03.836433  5893 net.cpp:458] inception_3b/relu_3x3_reduce <- inception_3b/3x3_reduce_bn
I1107 08:36:03.836438  5893 net.cpp:120] 0
I1107 08:36:03.836442  5893 net.cpp:126] This layer is inheriting previous layer's sync mode: 1
I1107 08:36:03.836447  5893 net.cpp:403] inception_3b/relu_3x3_reduce -> inception_3b/3x3_reduce_bn (in-place)
I1107 08:36:03.836453  5893 net.cpp:159] Setting up inception_3b/relu_3x3_reduce
I1107 08:36:03.836657  5893 net.cpp:166] Top shape: 16 64 28 28 (802816)
I1107 08:36:03.836668  5893 layer_factory.hpp:74] Creating layer inception_3b/3x3
I1107 08:36:03.836678  5893 net.cpp:94] Creating Layer inception_3b/3x3
I1107 08:36:03.836683  5893 net.cpp:458] inception_3b/3x3 <- inception_3b/3x3_reduce_bn
I1107 08:36:03.836688  5893 net.cpp:120] 0
I1107 08:36:03.836693  5893 net.cpp:126] This layer is inheriting previous layer's sync mode: 1
I1107 08:36:03.836699  5893 net.cpp:414] inception_3b/3x3 -> inception_3b/3x3
I1107 08:36:03.836709  5893 net.cpp:159] Setting up inception_3b/3x3
I1107 08:36:03.837998  5893 cudnn_conv_layer.cpp:193] Reallocating workspace storage: 20664
I1107 08:36:03.838028  5893 net.cpp:166] Top shape: 16 96 28 28 (1204224)
I1107 08:36:03.838042  5893 layer_factory.hpp:74] Creating layer inception_3b/3x3_bn
I1107 08:36:03.838052  5893 net.cpp:94] Creating Layer inception_3b/3x3_bn
I1107 08:36:03.838057  5893 net.cpp:458] inception_3b/3x3_bn <- inception_3b/3x3
I1107 08:36:03.838063  5893 net.cpp:120] 0
I1107 08:36:03.838066  5893 net.cpp:126] This layer is inheriting previous layer's sync mode: 1
I1107 08:36:03.838073  5893 net.cpp:414] inception_3b/3x3_bn -> inception_3b/3x3_bn
I1107 08:36:03.838083  5893 net.cpp:159] Setting up inception_3b/3x3_bn
I1107 08:36:03.838104  5893 net.cpp:166] Top shape: 16 96 28 28 (1204224)
I1107 08:36:03.838115  5893 layer_factory.hpp:74] Creating layer inception_3b/relu_3x3
I1107 08:36:03.838124  5893 net.cpp:94] Creating Layer inception_3b/relu_3x3
I1107 08:36:03.838127  5893 net.cpp:458] inception_3b/relu_3x3 <- inception_3b/3x3_bn
I1107 08:36:03.838134  5893 net.cpp:120] 0
I1107 08:36:03.838137  5893 net.cpp:126] This layer is inheriting previous layer's sync mode: 1
I1107 08:36:03.838142  5893 net.cpp:403] inception_3b/relu_3x3 -> inception_3b/3x3_bn (in-place)
I1107 08:36:03.838148  5893 net.cpp:159] Setting up inception_3b/relu_3x3
I1107 08:36:03.838522  5893 net.cpp:166] Top shape: 16 96 28 28 (1204224)
I1107 08:36:03.838536  5893 layer_factory.hpp:74] Creating layer inception_3b/double_3x3_reduce
I1107 08:36:03.838546  5893 net.cpp:94] Creating Layer inception_3b/double_3x3_reduce
I1107 08:36:03.838551  5893 net.cpp:458] inception_3b/double_3x3_reduce <- inception_3a/output_inception_3a/output_0_split_2
I1107 08:36:03.838557  5893 net.cpp:120] 0
I1107 08:36:03.838560  5893 net.cpp:126] This layer is inheriting previous layer's sync mode: 1
I1107 08:36:03.838568  5893 net.cpp:414] inception_3b/double_3x3_reduce -> inception_3b/double_3x3_reduce
I1107 08:36:03.838577  5893 net.cpp:159] Setting up inception_3b/double_3x3_reduce
I1107 08:36:03.839464  5893 cudnn_conv_layer.cpp:193] Reallocating workspace storage: 20664
I1107 08:36:03.839483  5893 net.cpp:166] Top shape: 16 64 28 28 (802816)
I1107 08:36:03.839491  5893 layer_factory.hpp:74] Creating layer inception_3b/double_3x3_reduce_bn
I1107 08:36:03.839503  5893 net.cpp:94] Creating Layer inception_3b/double_3x3_reduce_bn
I1107 08:36:03.839509  5893 net.cpp:458] inception_3b/double_3x3_reduce_bn <- inception_3b/double_3x3_reduce
I1107 08:36:03.839515  5893 net.cpp:120] 0
I1107 08:36:03.839519  5893 net.cpp:126] This layer is inheriting previous layer's sync mode: 1
I1107 08:36:03.839526  5893 net.cpp:414] inception_3b/double_3x3_reduce_bn -> inception_3b/double_3x3_reduce_bn
I1107 08:36:03.839535  5893 net.cpp:159] Setting up inception_3b/double_3x3_reduce_bn
I1107 08:36:03.839571  5893 net.cpp:166] Top shape: 16 64 28 28 (802816)
I1107 08:36:03.839583  5893 layer_factory.hpp:74] Creating layer inception_3b/relu_double_3x3_reduce
I1107 08:36:03.839592  5893 net.cpp:94] Creating Layer inception_3b/relu_double_3x3_reduce
I1107 08:36:03.839596  5893 net.cpp:458] inception_3b/relu_double_3x3_reduce <- inception_3b/double_3x3_reduce_bn
I1107 08:36:03.839602  5893 net.cpp:120] 0
I1107 08:36:03.839606  5893 net.cpp:126] This layer is inheriting previous layer's sync mode: 1
I1107 08:36:03.839612  5893 net.cpp:403] inception_3b/relu_double_3x3_reduce -> inception_3b/double_3x3_reduce_bn (in-place)
I1107 08:36:03.839617  5893 net.cpp:159] Setting up inception_3b/relu_double_3x3_reduce
I1107 08:36:03.840011  5893 net.cpp:166] Top shape: 16 64 28 28 (802816)
I1107 08:36:03.840025  5893 layer_factory.hpp:74] Creating layer inception_3b/double_3x3_1
I1107 08:36:03.840037  5893 net.cpp:94] Creating Layer inception_3b/double_3x3_1
I1107 08:36:03.840042  5893 net.cpp:458] inception_3b/double_3x3_1 <- inception_3b/double_3x3_reduce_bn
I1107 08:36:03.840049  5893 net.cpp:120] 0
I1107 08:36:03.840054  5893 net.cpp:126] This layer is inheriting previous layer's sync mode: 1
I1107 08:36:03.840060  5893 net.cpp:414] inception_3b/double_3x3_1 -> inception_3b/double_3x3_1
I1107 08:36:03.840070  5893 net.cpp:159] Setting up inception_3b/double_3x3_1
I1107 08:36:03.841348  5893 cudnn_conv_layer.cpp:193] Reallocating workspace storage: 20664
I1107 08:36:03.841366  5893 net.cpp:166] Top shape: 16 96 28 28 (1204224)
I1107 08:36:03.841375  5893 layer_factory.hpp:74] Creating layer inception_3b/double_3x3_1_bn
I1107 08:36:03.841387  5893 net.cpp:94] Creating Layer inception_3b/double_3x3_1_bn
I1107 08:36:03.841392  5893 net.cpp:458] inception_3b/double_3x3_1_bn <- inception_3b/double_3x3_1
I1107 08:36:03.841398  5893 net.cpp:120] 0
I1107 08:36:03.841403  5893 net.cpp:126] This layer is inheriting previous layer's sync mode: 1
I1107 08:36:03.841410  5893 net.cpp:414] inception_3b/double_3x3_1_bn -> inception_3b/double_3x3_1_bn
I1107 08:36:03.841419  5893 net.cpp:159] Setting up inception_3b/double_3x3_1_bn
I1107 08:36:03.841441  5893 net.cpp:166] Top shape: 16 96 28 28 (1204224)
I1107 08:36:03.841454  5893 layer_factory.hpp:74] Creating layer inception_3b/relu_double_3x3_1
I1107 08:36:03.841462  5893 net.cpp:94] Creating Layer inception_3b/relu_double_3x3_1
I1107 08:36:03.841466  5893 net.cpp:458] inception_3b/relu_double_3x3_1 <- inception_3b/double_3x3_1_bn
I1107 08:36:03.841471  5893 net.cpp:120] 0
I1107 08:36:03.841475  5893 net.cpp:126] This layer is inheriting previous layer's sync mode: 1
I1107 08:36:03.841480  5893 net.cpp:403] inception_3b/relu_double_3x3_1 -> inception_3b/double_3x3_1_bn (in-place)
I1107 08:36:03.841486  5893 net.cpp:159] Setting up inception_3b/relu_double_3x3_1
I1107 08:36:03.841688  5893 net.cpp:166] Top shape: 16 96 28 28 (1204224)
I1107 08:36:03.841699  5893 layer_factory.hpp:74] Creating layer inception_3b/double_3x3_2
I1107 08:36:03.841709  5893 net.cpp:94] Creating Layer inception_3b/double_3x3_2
I1107 08:36:03.841714  5893 net.cpp:458] inception_3b/double_3x3_2 <- inception_3b/double_3x3_1_bn
I1107 08:36:03.841720  5893 net.cpp:120] 0
I1107 08:36:03.841724  5893 net.cpp:126] This layer is inheriting previous layer's sync mode: 1
I1107 08:36:03.841732  5893 net.cpp:414] inception_3b/double_3x3_2 -> inception_3b/double_3x3_2
I1107 08:36:03.841740  5893 net.cpp:159] Setting up inception_3b/double_3x3_2
I1107 08:36:03.843227  5893 cudnn_conv_layer.cpp:193] Reallocating workspace storage: 240721920
I1107 08:36:03.843245  5893 net.cpp:166] Top shape: 16 96 28 28 (1204224)
I1107 08:36:03.843269  5893 layer_factory.hpp:74] Creating layer inception_3b/double_3x3_2_bn
I1107 08:36:03.843279  5893 net.cpp:94] Creating Layer inception_3b/double_3x3_2_bn
I1107 08:36:03.843284  5893 net.cpp:458] inception_3b/double_3x3_2_bn <- inception_3b/double_3x3_2
I1107 08:36:03.843291  5893 net.cpp:120] 0
I1107 08:36:03.843294  5893 net.cpp:126] This layer is inheriting previous layer's sync mode: 1
I1107 08:36:03.843317  5893 net.cpp:414] inception_3b/double_3x3_2_bn -> inception_3b/double_3x3_2_bn
I1107 08:36:03.843327  5893 net.cpp:159] Setting up inception_3b/double_3x3_2_bn
I1107 08:36:03.843348  5893 net.cpp:166] Top shape: 16 96 28 28 (1204224)
I1107 08:36:03.843359  5893 layer_factory.hpp:74] Creating layer inception_3b/relu_double_3x3_2
I1107 08:36:03.843369  5893 net.cpp:94] Creating Layer inception_3b/relu_double_3x3_2
I1107 08:36:03.843372  5893 net.cpp:458] inception_3b/relu_double_3x3_2 <- inception_3b/double_3x3_2_bn
I1107 08:36:03.843377  5893 net.cpp:120] 0
I1107 08:36:03.843381  5893 net.cpp:126] This layer is inheriting previous layer's sync mode: 1
I1107 08:36:03.843387  5893 net.cpp:403] inception_3b/relu_double_3x3_2 -> inception_3b/double_3x3_2_bn (in-place)
I1107 08:36:03.843394  5893 net.cpp:159] Setting up inception_3b/relu_double_3x3_2
I1107 08:36:03.843726  5893 net.cpp:166] Top shape: 16 96 28 28 (1204224)
I1107 08:36:03.843739  5893 layer_factory.hpp:74] Creating layer inception_3b/pool
I1107 08:36:03.843757  5893 layer_factory.cpp:55] CUDNN does not support padding or multiple tops. Using Caffe's own pooling layer.
I1107 08:36:03.843765  5893 net.cpp:94] Creating Layer inception_3b/pool
I1107 08:36:03.843770  5893 net.cpp:458] inception_3b/pool <- inception_3a/output_inception_3a/output_0_split_3
I1107 08:36:03.843775  5893 net.cpp:120] 0
I1107 08:36:03.843780  5893 net.cpp:126] This layer is inheriting previous layer's sync mode: 1
I1107 08:36:03.843786  5893 net.cpp:414] inception_3b/pool -> inception_3b/pool
I1107 08:36:03.843793  5893 net.cpp:159] Setting up inception_3b/pool
I1107 08:36:03.843801  5893 net.cpp:166] Top shape: 16 256 28 28 (3211264)
I1107 08:36:03.843806  5893 layer_factory.hpp:74] Creating layer inception_3b/pool_proj
I1107 08:36:03.843814  5893 net.cpp:94] Creating Layer inception_3b/pool_proj
I1107 08:36:03.843822  5893 net.cpp:458] inception_3b/pool_proj <- inception_3b/pool
I1107 08:36:03.843827  5893 net.cpp:120] 0
I1107 08:36:03.843830  5893 net.cpp:126] This layer is inheriting previous layer's sync mode: 1
I1107 08:36:03.843837  5893 net.cpp:414] inception_3b/pool_proj -> inception_3b/pool_proj
I1107 08:36:03.843845  5893 net.cpp:159] Setting up inception_3b/pool_proj
I1107 08:36:03.844682  5893 cudnn_conv_layer.cpp:193] Reallocating workspace storage: 20664
I1107 08:36:03.844699  5893 net.cpp:166] Top shape: 16 64 28 28 (802816)
I1107 08:36:03.844722  5893 layer_factory.hpp:74] Creating layer inception_3b/pool_proj_bn
I1107 08:36:03.844734  5893 net.cpp:94] Creating Layer inception_3b/pool_proj_bn
I1107 08:36:03.844739  5893 net.cpp:458] inception_3b/pool_proj_bn <- inception_3b/pool_proj
I1107 08:36:03.844745  5893 net.cpp:120] 0
I1107 08:36:03.844750  5893 net.cpp:126] This layer is inheriting previous layer's sync mode: 1
I1107 08:36:03.844758  5893 net.cpp:414] inception_3b/pool_proj_bn -> inception_3b/pool_proj_bn
I1107 08:36:03.844766  5893 net.cpp:159] Setting up inception_3b/pool_proj_bn
I1107 08:36:03.844787  5893 net.cpp:166] Top shape: 16 64 28 28 (802816)
I1107 08:36:03.844799  5893 layer_factory.hpp:74] Creating layer inception_3b/relu_pool_proj
I1107 08:36:03.844806  5893 net.cpp:94] Creating Layer inception_3b/relu_pool_proj
I1107 08:36:03.844811  5893 net.cpp:458] inception_3b/relu_pool_proj <- inception_3b/pool_proj_bn
I1107 08:36:03.844816  5893 net.cpp:120] 0
I1107 08:36:03.844820  5893 net.cpp:126] This layer is inheriting previous layer's sync mode: 1
I1107 08:36:03.844825  5893 net.cpp:403] inception_3b/relu_pool_proj -> inception_3b/pool_proj_bn (in-place)
I1107 08:36:03.844831  5893 net.cpp:159] Setting up inception_3b/relu_pool_proj
I1107 08:36:03.845163  5893 net.cpp:166] Top shape: 16 64 28 28 (802816)
I1107 08:36:03.845176  5893 layer_factory.hpp:74] Creating layer inception_3b/output
I1107 08:36:03.845197  5893 net.cpp:94] Creating Layer inception_3b/output
I1107 08:36:03.845203  5893 net.cpp:458] inception_3b/output <- inception_3b/1x1_bn
I1107 08:36:03.845211  5893 net.cpp:458] inception_3b/output <- inception_3b/3x3_bn
I1107 08:36:03.845229  5893 net.cpp:458] inception_3b/output <- inception_3b/double_3x3_2_bn
I1107 08:36:03.845237  5893 net.cpp:458] inception_3b/output <- inception_3b/pool_proj_bn
I1107 08:36:03.845242  5893 net.cpp:120] 0
I1107 08:36:03.845245  5893 net.cpp:126] This layer is inheriting previous layer's sync mode: 1
I1107 08:36:03.845252  5893 net.cpp:414] inception_3b/output -> inception_3b/output
I1107 08:36:03.845259  5893 net.cpp:159] Setting up inception_3b/output
I1107 08:36:03.845268  5893 net.cpp:166] Top shape: 16 320 28 28 (4014080)
I1107 08:36:03.845273  5893 layer_factory.hpp:74] Creating layer inception_3b/output_inception_3b/output_0_split
I1107 08:36:03.845279  5893 net.cpp:94] Creating Layer inception_3b/output_inception_3b/output_0_split
I1107 08:36:03.845284  5893 net.cpp:458] inception_3b/output_inception_3b/output_0_split <- inception_3b/output
I1107 08:36:03.845289  5893 net.cpp:120] 0
I1107 08:36:03.845294  5893 net.cpp:126] This layer is inheriting previous layer's sync mode: 1
I1107 08:36:03.845299  5893 net.cpp:414] inception_3b/output_inception_3b/output_0_split -> inception_3b/output_inception_3b/output_0_split_0
I1107 08:36:03.845310  5893 net.cpp:414] inception_3b/output_inception_3b/output_0_split -> inception_3b/output_inception_3b/output_0_split_1
I1107 08:36:03.845319  5893 net.cpp:414] inception_3b/output_inception_3b/output_0_split -> inception_3b/output_inception_3b/output_0_split_2
I1107 08:36:03.845324  5893 net.cpp:159] Setting up inception_3b/output_inception_3b/output_0_split
I1107 08:36:03.845332  5893 net.cpp:166] Top shape: 16 320 28 28 (4014080)
I1107 08:36:03.845337  5893 net.cpp:166] Top shape: 16 320 28 28 (4014080)
I1107 08:36:03.845341  5893 net.cpp:166] Top shape: 16 320 28 28 (4014080)
I1107 08:36:03.845345  5893 layer_factory.hpp:74] Creating layer inception_3c/3x3_reduce
I1107 08:36:03.845355  5893 net.cpp:94] Creating Layer inception_3c/3x3_reduce
I1107 08:36:03.845360  5893 net.cpp:458] inception_3c/3x3_reduce <- inception_3b/output_inception_3b/output_0_split_0
I1107 08:36:03.845366  5893 net.cpp:120] 0
I1107 08:36:03.845368  5893 net.cpp:126] This layer is inheriting previous layer's sync mode: 1
I1107 08:36:03.845376  5893 net.cpp:414] inception_3c/3x3_reduce -> inception_3c/3x3_reduce
I1107 08:36:03.845382  5893 net.cpp:159] Setting up inception_3c/3x3_reduce
I1107 08:36:03.846493  5893 cudnn_conv_layer.cpp:193] Reallocating workspace storage: 14136
I1107 08:36:03.846509  5893 net.cpp:166] Top shape: 16 128 28 28 (1605632)
I1107 08:36:03.846531  5893 layer_factory.hpp:74] Creating layer inception_3c/3x3_reduce_bn
I1107 08:36:03.846542  5893 net.cpp:94] Creating Layer inception_3c/3x3_reduce_bn
I1107 08:36:03.846549  5893 net.cpp:458] inception_3c/3x3_reduce_bn <- inception_3c/3x3_reduce
I1107 08:36:03.846554  5893 net.cpp:120] 0
I1107 08:36:03.846560  5893 net.cpp:126] This layer is inheriting previous layer's sync mode: 1
I1107 08:36:03.846566  5893 net.cpp:414] inception_3c/3x3_reduce_bn -> inception_3c/3x3_reduce_bn
I1107 08:36:03.846575  5893 net.cpp:159] Setting up inception_3c/3x3_reduce_bn
I1107 08:36:03.846618  5893 net.cpp:166] Top shape: 16 128 28 28 (1605632)
I1107 08:36:03.846633  5893 layer_factory.hpp:74] Creating layer inception_3c/relu_3x3_reduce
I1107 08:36:03.846640  5893 net.cpp:94] Creating Layer inception_3c/relu_3x3_reduce
I1107 08:36:03.846645  5893 net.cpp:458] inception_3c/relu_3x3_reduce <- inception_3c/3x3_reduce_bn
I1107 08:36:03.846652  5893 net.cpp:120] 0
I1107 08:36:03.846657  5893 net.cpp:126] This layer is inheriting previous layer's sync mode: 1
I1107 08:36:03.846660  5893 net.cpp:403] inception_3c/relu_3x3_reduce -> inception_3c/3x3_reduce_bn (in-place)
I1107 08:36:03.846668  5893 net.cpp:159] Setting up inception_3c/relu_3x3_reduce
I1107 08:36:03.846870  5893 net.cpp:166] Top shape: 16 128 28 28 (1605632)
I1107 08:36:03.846881  5893 layer_factory.hpp:74] Creating layer inception_3c/3x3
I1107 08:36:03.846899  5893 net.cpp:94] Creating Layer inception_3c/3x3
I1107 08:36:03.846904  5893 net.cpp:458] inception_3c/3x3 <- inception_3c/3x3_reduce_bn
I1107 08:36:03.846923  5893 net.cpp:120] 0
I1107 08:36:03.846928  5893 net.cpp:126] This layer is inheriting previous layer's sync mode: 1
I1107 08:36:03.846935  5893 net.cpp:414] inception_3c/3x3 -> inception_3c/3x3
I1107 08:36:03.846945  5893 net.cpp:159] Setting up inception_3c/3x3
I1107 08:36:03.848959  5893 cudnn_conv_layer.cpp:193] Reallocating workspace storage: 20664
I1107 08:36:03.848978  5893 net.cpp:166] Top shape: 16 160 14 14 (501760)
I1107 08:36:03.849002  5893 layer_factory.hpp:74] Creating layer inception_3c/3x3_bn
I1107 08:36:03.849014  5893 net.cpp:94] Creating Layer inception_3c/3x3_bn
I1107 08:36:03.849020  5893 net.cpp:458] inception_3c/3x3_bn <- inception_3c/3x3
I1107 08:36:03.849025  5893 net.cpp:120] 0
I1107 08:36:03.849030  5893 net.cpp:126] This layer is inheriting previous layer's sync mode: 1
I1107 08:36:03.849036  5893 net.cpp:414] inception_3c/3x3_bn -> inception_3c/3x3_bn
I1107 08:36:03.849045  5893 net.cpp:159] Setting up inception_3c/3x3_bn
I1107 08:36:03.849066  5893 net.cpp:166] Top shape: 16 160 14 14 (501760)
I1107 08:36:03.849078  5893 layer_factory.hpp:74] Creating layer inception_3c/relu_3x3
I1107 08:36:03.849086  5893 net.cpp:94] Creating Layer inception_3c/relu_3x3
I1107 08:36:03.849091  5893 net.cpp:458] inception_3c/relu_3x3 <- inception_3c/3x3_bn
I1107 08:36:03.849094  5893 net.cpp:120] 0
I1107 08:36:03.849098  5893 net.cpp:126] This layer is inheriting previous layer's sync mode: 1
I1107 08:36:03.849103  5893 net.cpp:403] inception_3c/relu_3x3 -> inception_3c/3x3_bn (in-place)
I1107 08:36:03.849109  5893 net.cpp:159] Setting up inception_3c/relu_3x3
I1107 08:36:03.849442  5893 net.cpp:166] Top shape: 16 160 14 14 (501760)
I1107 08:36:03.849455  5893 layer_factory.hpp:74] Creating layer inception_3c/double_3x3_reduce
I1107 08:36:03.849479  5893 net.cpp:94] Creating Layer inception_3c/double_3x3_reduce
I1107 08:36:03.849485  5893 net.cpp:458] inception_3c/double_3x3_reduce <- inception_3b/output_inception_3b/output_0_split_1
I1107 08:36:03.849491  5893 net.cpp:120] 0
I1107 08:36:03.849494  5893 net.cpp:126] This layer is inheriting previous layer's sync mode: 1
I1107 08:36:03.849501  5893 net.cpp:414] inception_3c/double_3x3_reduce -> inception_3c/double_3x3_reduce
I1107 08:36:03.849510  5893 net.cpp:159] Setting up inception_3c/double_3x3_reduce
I1107 08:36:03.850436  5893 cudnn_conv_layer.cpp:193] Reallocating workspace storage: 20664
I1107 08:36:03.850453  5893 net.cpp:166] Top shape: 16 64 28 28 (802816)
I1107 08:36:03.850476  5893 layer_factory.hpp:74] Creating layer inception_3c/double_3x3_reduce_bn
I1107 08:36:03.850487  5893 net.cpp:94] Creating Layer inception_3c/double_3x3_reduce_bn
I1107 08:36:03.850493  5893 net.cpp:458] inception_3c/double_3x3_reduce_bn <- inception_3c/double_3x3_reduce
I1107 08:36:03.850499  5893 net.cpp:120] 0
I1107 08:36:03.850503  5893 net.cpp:126] This layer is inheriting previous layer's sync mode: 1
I1107 08:36:03.850512  5893 net.cpp:414] inception_3c/double_3x3_reduce_bn -> inception_3c/double_3x3_reduce_bn
I1107 08:36:03.850520  5893 net.cpp:159] Setting up inception_3c/double_3x3_reduce_bn
I1107 08:36:03.850541  5893 net.cpp:166] Top shape: 16 64 28 28 (802816)
I1107 08:36:03.850553  5893 layer_factory.hpp:74] Creating layer inception_3c/relu_double_3x3_reduce
I1107 08:36:03.850561  5893 net.cpp:94] Creating Layer inception_3c/relu_double_3x3_reduce
I1107 08:36:03.850565  5893 net.cpp:458] inception_3c/relu_double_3x3_reduce <- inception_3c/double_3x3_reduce_bn
I1107 08:36:03.850570  5893 net.cpp:120] 0
I1107 08:36:03.850574  5893 net.cpp:126] This layer is inheriting previous layer's sync mode: 1
I1107 08:36:03.850579  5893 net.cpp:403] inception_3c/relu_double_3x3_reduce -> inception_3c/double_3x3_reduce_bn (in-place)
I1107 08:36:03.850585  5893 net.cpp:159] Setting up inception_3c/relu_double_3x3_reduce
I1107 08:36:03.850925  5893 net.cpp:166] Top shape: 16 64 28 28 (802816)
I1107 08:36:03.850939  5893 layer_factory.hpp:74] Creating layer inception_3c/double_3x3_1
I1107 08:36:03.850961  5893 net.cpp:94] Creating Layer inception_3c/double_3x3_1
I1107 08:36:03.850978  5893 net.cpp:458] inception_3c/double_3x3_1 <- inception_3c/double_3x3_reduce_bn
I1107 08:36:03.850986  5893 net.cpp:120] 0
I1107 08:36:03.850989  5893 net.cpp:126] This layer is inheriting previous layer's sync mode: 1
I1107 08:36:03.850996  5893 net.cpp:414] inception_3c/double_3x3_1 -> inception_3c/double_3x3_1
I1107 08:36:03.851006  5893 net.cpp:159] Setting up inception_3c/double_3x3_1
I1107 08:36:03.852239  5893 cudnn_conv_layer.cpp:193] Reallocating workspace storage: 20664
I1107 08:36:03.852257  5893 net.cpp:166] Top shape: 16 96 28 28 (1204224)
I1107 08:36:03.852278  5893 layer_factory.hpp:74] Creating layer inception_3c/double_3x3_1_bn
I1107 08:36:03.852288  5893 net.cpp:94] Creating Layer inception_3c/double_3x3_1_bn
I1107 08:36:03.852293  5893 net.cpp:458] inception_3c/double_3x3_1_bn <- inception_3c/double_3x3_1
I1107 08:36:03.852299  5893 net.cpp:120] 0
I1107 08:36:03.852304  5893 net.cpp:126] This layer is inheriting previous layer's sync mode: 1
I1107 08:36:03.852311  5893 net.cpp:414] inception_3c/double_3x3_1_bn -> inception_3c/double_3x3_1_bn
I1107 08:36:03.852319  5893 net.cpp:159] Setting up inception_3c/double_3x3_1_bn
I1107 08:36:03.852340  5893 net.cpp:166] Top shape: 16 96 28 28 (1204224)
I1107 08:36:03.852351  5893 layer_factory.hpp:74] Creating layer inception_3c/relu_double_3x3_1
I1107 08:36:03.852360  5893 net.cpp:94] Creating Layer inception_3c/relu_double_3x3_1
I1107 08:36:03.852365  5893 net.cpp:458] inception_3c/relu_double_3x3_1 <- inception_3c/double_3x3_1_bn
I1107 08:36:03.852370  5893 net.cpp:120] 0
I1107 08:36:03.852373  5893 net.cpp:126] This layer is inheriting previous layer's sync mode: 1
I1107 08:36:03.852377  5893 net.cpp:403] inception_3c/relu_double_3x3_1 -> inception_3c/double_3x3_1_bn (in-place)
I1107 08:36:03.852383  5893 net.cpp:159] Setting up inception_3c/relu_double_3x3_1
I1107 08:36:03.852581  5893 net.cpp:166] Top shape: 16 96 28 28 (1204224)
I1107 08:36:03.852592  5893 layer_factory.hpp:74] Creating layer inception_3c/double_3x3_2
I1107 08:36:03.852603  5893 net.cpp:94] Creating Layer inception_3c/double_3x3_2
I1107 08:36:03.852608  5893 net.cpp:458] inception_3c/double_3x3_2 <- inception_3c/double_3x3_1_bn
I1107 08:36:03.852613  5893 net.cpp:120] 0
I1107 08:36:03.852617  5893 net.cpp:126] This layer is inheriting previous layer's sync mode: 1
I1107 08:36:03.852625  5893 net.cpp:414] inception_3c/double_3x3_2 -> inception_3c/double_3x3_2
I1107 08:36:03.852633  5893 net.cpp:159] Setting up inception_3c/double_3x3_2
I1107 08:36:03.853973  5893 cudnn_conv_layer.cpp:193] Reallocating workspace storage: 20664
I1107 08:36:03.853991  5893 net.cpp:166] Top shape: 16 96 14 14 (301056)
I1107 08:36:03.854013  5893 layer_factory.hpp:74] Creating layer inception_3c/double_3x3_2_bn
I1107 08:36:03.854024  5893 net.cpp:94] Creating Layer inception_3c/double_3x3_2_bn
I1107 08:36:03.854029  5893 net.cpp:458] inception_3c/double_3x3_2_bn <- inception_3c/double_3x3_2
I1107 08:36:03.854035  5893 net.cpp:120] 0
I1107 08:36:03.854040  5893 net.cpp:126] This layer is inheriting previous layer's sync mode: 1
I1107 08:36:03.854046  5893 net.cpp:414] inception_3c/double_3x3_2_bn -> inception_3c/double_3x3_2_bn
I1107 08:36:03.854055  5893 net.cpp:159] Setting up inception_3c/double_3x3_2_bn
I1107 08:36:03.854075  5893 net.cpp:166] Top shape: 16 96 14 14 (301056)
I1107 08:36:03.854099  5893 layer_factory.hpp:74] Creating layer inception_3c/relu_double_3x3_2
I1107 08:36:03.854109  5893 net.cpp:94] Creating Layer inception_3c/relu_double_3x3_2
I1107 08:36:03.854113  5893 net.cpp:458] inception_3c/relu_double_3x3_2 <- inception_3c/double_3x3_2_bn
I1107 08:36:03.854118  5893 net.cpp:120] 0
I1107 08:36:03.854121  5893 net.cpp:126] This layer is inheriting previous layer's sync mode: 1
I1107 08:36:03.854125  5893 net.cpp:403] inception_3c/relu_double_3x3_2 -> inception_3c/double_3x3_2_bn (in-place)
I1107 08:36:03.854132  5893 net.cpp:159] Setting up inception_3c/relu_double_3x3_2
I1107 08:36:03.854460  5893 net.cpp:166] Top shape: 16 96 14 14 (301056)
I1107 08:36:03.854482  5893 layer_factory.hpp:74] Creating layer inception_3c/pool
I1107 08:36:03.854504  5893 net.cpp:94] Creating Layer inception_3c/pool
I1107 08:36:03.854511  5893 net.cpp:458] inception_3c/pool <- inception_3b/output_inception_3b/output_0_split_2
I1107 08:36:03.854516  5893 net.cpp:120] 0
I1107 08:36:03.854519  5893 net.cpp:126] This layer is inheriting previous layer's sync mode: 1
I1107 08:36:03.854526  5893 net.cpp:414] inception_3c/pool -> inception_3c/pool
I1107 08:36:03.854532  5893 net.cpp:159] Setting up inception_3c/pool
I1107 08:36:03.854758  5893 net.cpp:166] Top shape: 16 320 14 14 (1003520)
I1107 08:36:03.854770  5893 layer_factory.hpp:74] Creating layer inception_3c/output
I1107 08:36:03.854780  5893 net.cpp:94] Creating Layer inception_3c/output
I1107 08:36:03.854785  5893 net.cpp:458] inception_3c/output <- inception_3c/3x3_bn
I1107 08:36:03.854794  5893 net.cpp:458] inception_3c/output <- inception_3c/double_3x3_2_bn
I1107 08:36:03.854799  5893 net.cpp:458] inception_3c/output <- inception_3c/pool
I1107 08:36:03.854804  5893 net.cpp:120] 0
I1107 08:36:03.854809  5893 net.cpp:126] This layer is inheriting previous layer's sync mode: 1
I1107 08:36:03.854815  5893 net.cpp:414] inception_3c/output -> inception_3c/output
I1107 08:36:03.854830  5893 net.cpp:159] Setting up inception_3c/output
I1107 08:36:03.854838  5893 net.cpp:166] Top shape: 16 576 14 14 (1806336)
I1107 08:36:03.854843  5893 layer_factory.hpp:74] Creating layer inception_3c/output_inception_3c/output_0_split
I1107 08:36:03.854851  5893 net.cpp:94] Creating Layer inception_3c/output_inception_3c/output_0_split
I1107 08:36:03.854854  5893 net.cpp:458] inception_3c/output_inception_3c/output_0_split <- inception_3c/output
I1107 08:36:03.854859  5893 net.cpp:120] 0
I1107 08:36:03.854863  5893 net.cpp:126] This layer is inheriting previous layer's sync mode: 1
I1107 08:36:03.854868  5893 net.cpp:414] inception_3c/output_inception_3c/output_0_split -> inception_3c/output_inception_3c/output_0_split_0
I1107 08:36:03.854876  5893 net.cpp:414] inception_3c/output_inception_3c/output_0_split -> inception_3c/output_inception_3c/output_0_split_1
I1107 08:36:03.854883  5893 net.cpp:414] inception_3c/output_inception_3c/output_0_split -> inception_3c/output_inception_3c/output_0_split_2
I1107 08:36:03.854890  5893 net.cpp:414] inception_3c/output_inception_3c/output_0_split -> inception_3c/output_inception_3c/output_0_split_3
I1107 08:36:03.854897  5893 net.cpp:159] Setting up inception_3c/output_inception_3c/output_0_split
I1107 08:36:03.854904  5893 net.cpp:166] Top shape: 16 576 14 14 (1806336)
I1107 08:36:03.854909  5893 net.cpp:166] Top shape: 16 576 14 14 (1806336)
I1107 08:36:03.854914  5893 net.cpp:166] Top shape: 16 576 14 14 (1806336)
I1107 08:36:03.854918  5893 net.cpp:166] Top shape: 16 576 14 14 (1806336)
I1107 08:36:03.854923  5893 layer_factory.hpp:74] Creating layer inception_4a/1x1
I1107 08:36:03.854944  5893 net.cpp:94] Creating Layer inception_4a/1x1
I1107 08:36:03.854950  5893 net.cpp:458] inception_4a/1x1 <- inception_3c/output_inception_3c/output_0_split_0
I1107 08:36:03.854955  5893 net.cpp:120] 0
I1107 08:36:03.854959  5893 net.cpp:126] This layer is inheriting previous layer's sync mode: 1
I1107 08:36:03.854965  5893 net.cpp:414] inception_4a/1x1 -> inception_4a/1x1
I1107 08:36:03.854972  5893 net.cpp:159] Setting up inception_4a/1x1
I1107 08:36:03.856663  5893 cudnn_conv_layer.cpp:193] Reallocating workspace storage: 10080
I1107 08:36:03.856693  5893 net.cpp:166] Top shape: 16 224 14 14 (702464)
I1107 08:36:03.856704  5893 layer_factory.hpp:74] Creating layer inception_4a/1x1_bn
I1107 08:36:03.856715  5893 net.cpp:94] Creating Layer inception_4a/1x1_bn
I1107 08:36:03.856720  5893 net.cpp:458] inception_4a/1x1_bn <- inception_4a/1x1
I1107 08:36:03.856725  5893 net.cpp:120] 0
I1107 08:36:03.856729  5893 net.cpp:126] This layer is inheriting previous layer's sync mode: 1
I1107 08:36:03.856735  5893 net.cpp:414] inception_4a/1x1_bn -> inception_4a/1x1_bn
I1107 08:36:03.856745  5893 net.cpp:159] Setting up inception_4a/1x1_bn
I1107 08:36:03.856780  5893 net.cpp:166] Top shape: 16 224 14 14 (702464)
I1107 08:36:03.856791  5893 layer_factory.hpp:74] Creating layer inception_4a/relu_1x1
I1107 08:36:03.856797  5893 net.cpp:94] Creating Layer inception_4a/relu_1x1
I1107 08:36:03.856802  5893 net.cpp:458] inception_4a/relu_1x1 <- inception_4a/1x1_bn
I1107 08:36:03.856806  5893 net.cpp:120] 0
I1107 08:36:03.856811  5893 net.cpp:126] This layer is inheriting previous layer's sync mode: 1
I1107 08:36:03.856816  5893 net.cpp:403] inception_4a/relu_1x1 -> inception_4a/1x1_bn (in-place)
I1107 08:36:03.856822  5893 net.cpp:159] Setting up inception_4a/relu_1x1
I1107 08:36:03.857017  5893 net.cpp:166] Top shape: 16 224 14 14 (702464)
I1107 08:36:03.857029  5893 layer_factory.hpp:74] Creating layer inception_4a/3x3_reduce
I1107 08:36:03.857040  5893 net.cpp:94] Creating Layer inception_4a/3x3_reduce
I1107 08:36:03.857046  5893 net.cpp:458] inception_4a/3x3_reduce <- inception_3c/output_inception_3c/output_0_split_1
I1107 08:36:03.857053  5893 net.cpp:120] 0
I1107 08:36:03.857056  5893 net.cpp:126] This layer is inheriting previous layer's sync mode: 1
I1107 08:36:03.857064  5893 net.cpp:414] inception_4a/3x3_reduce -> inception_4a/3x3_reduce
I1107 08:36:03.857072  5893 net.cpp:159] Setting up inception_4a/3x3_reduce
I1107 08:36:03.858352  5893 cudnn_conv_layer.cpp:193] Reallocating workspace storage: 10080
I1107 08:36:03.858369  5893 net.cpp:166] Top shape: 16 64 14 14 (200704)
I1107 08:36:03.858392  5893 layer_factory.hpp:74] Creating layer inception_4a/3x3_reduce_bn
I1107 08:36:03.858402  5893 net.cpp:94] Creating Layer inception_4a/3x3_reduce_bn
I1107 08:36:03.858407  5893 net.cpp:458] inception_4a/3x3_reduce_bn <- inception_4a/3x3_reduce
I1107 08:36:03.858412  5893 net.cpp:120] 0
I1107 08:36:03.858415  5893 net.cpp:126] This layer is inheriting previous layer's sync mode: 1
I1107 08:36:03.858422  5893 net.cpp:414] inception_4a/3x3_reduce_bn -> inception_4a/3x3_reduce_bn
I1107 08:36:03.858431  5893 net.cpp:159] Setting up inception_4a/3x3_reduce_bn
I1107 08:36:03.858453  5893 net.cpp:166] Top shape: 16 64 14 14 (200704)
I1107 08:36:03.858463  5893 layer_factory.hpp:74] Creating layer inception_4a/relu_3x3_reduce
I1107 08:36:03.858471  5893 net.cpp:94] Creating Layer inception_4a/relu_3x3_reduce
I1107 08:36:03.858476  5893 net.cpp:458] inception_4a/relu_3x3_reduce <- inception_4a/3x3_reduce_bn
I1107 08:36:03.858481  5893 net.cpp:120] 0
I1107 08:36:03.858486  5893 net.cpp:126] This layer is inheriting previous layer's sync mode: 1
I1107 08:36:03.858491  5893 net.cpp:403] inception_4a/relu_3x3_reduce -> inception_4a/3x3_reduce_bn (in-place)
I1107 08:36:03.858497  5893 net.cpp:159] Setting up inception_4a/relu_3x3_reduce
I1107 08:36:03.858846  5893 net.cpp:166] Top shape: 16 64 14 14 (200704)
I1107 08:36:03.858860  5893 layer_factory.hpp:74] Creating layer inception_4a/3x3
I1107 08:36:03.858875  5893 net.cpp:94] Creating Layer inception_4a/3x3
I1107 08:36:03.858880  5893 net.cpp:458] inception_4a/3x3 <- inception_4a/3x3_reduce_bn
I1107 08:36:03.858886  5893 net.cpp:120] 0
I1107 08:36:03.858891  5893 net.cpp:126] This layer is inheriting previous layer's sync mode: 1
I1107 08:36:03.858911  5893 net.cpp:414] inception_4a/3x3 -> inception_4a/3x3
I1107 08:36:03.858922  5893 net.cpp:159] Setting up inception_4a/3x3
I1107 08:36:03.860195  5893 cudnn_conv_layer.cpp:193] Reallocating workspace storage: 10080
I1107 08:36:03.860211  5893 net.cpp:166] Top shape: 16 96 14 14 (301056)
I1107 08:36:03.860234  5893 layer_factory.hpp:74] Creating layer inception_4a/3x3_bn
I1107 08:36:03.860244  5893 net.cpp:94] Creating Layer inception_4a/3x3_bn
I1107 08:36:03.860249  5893 net.cpp:458] inception_4a/3x3_bn <- inception_4a/3x3
I1107 08:36:03.860255  5893 net.cpp:120] 0
I1107 08:36:03.860257  5893 net.cpp:126] This layer is inheriting previous layer's sync mode: 1
I1107 08:36:03.860265  5893 net.cpp:414] inception_4a/3x3_bn -> inception_4a/3x3_bn
I1107 08:36:03.860273  5893 net.cpp:159] Setting up inception_4a/3x3_bn
I1107 08:36:03.860309  5893 net.cpp:166] Top shape: 16 96 14 14 (301056)
I1107 08:36:03.860321  5893 layer_factory.hpp:74] Creating layer inception_4a/relu_3x3
I1107 08:36:03.860328  5893 net.cpp:94] Creating Layer inception_4a/relu_3x3
I1107 08:36:03.860333  5893 net.cpp:458] inception_4a/relu_3x3 <- inception_4a/3x3_bn
I1107 08:36:03.860339  5893 net.cpp:120] 0
I1107 08:36:03.860343  5893 net.cpp:126] This layer is inheriting previous layer's sync mode: 1
I1107 08:36:03.860348  5893 net.cpp:403] inception_4a/relu_3x3 -> inception_4a/3x3_bn (in-place)
I1107 08:36:03.860355  5893 net.cpp:159] Setting up inception_4a/relu_3x3
I1107 08:36:03.860550  5893 net.cpp:166] Top shape: 16 96 14 14 (301056)
I1107 08:36:03.860563  5893 layer_factory.hpp:74] Creating layer inception_4a/double_3x3_reduce
I1107 08:36:03.860573  5893 net.cpp:94] Creating Layer inception_4a/double_3x3_reduce
I1107 08:36:03.860577  5893 net.cpp:458] inception_4a/double_3x3_reduce <- inception_3c/output_inception_3c/output_0_split_2
I1107 08:36:03.860582  5893 net.cpp:120] 0
I1107 08:36:03.860586  5893 net.cpp:126] This layer is inheriting previous layer's sync mode: 1
I1107 08:36:03.860594  5893 net.cpp:414] inception_4a/double_3x3_reduce -> inception_4a/double_3x3_reduce
I1107 08:36:03.860601  5893 net.cpp:159] Setting up inception_4a/double_3x3_reduce
I1107 08:36:03.861812  5893 cudnn_conv_layer.cpp:193] Reallocating workspace storage: 10080
I1107 08:36:03.861829  5893 net.cpp:166] Top shape: 16 96 14 14 (301056)
I1107 08:36:03.861850  5893 layer_factory.hpp:74] Creating layer inception_4a/double_3x3_reduce_bn
I1107 08:36:03.861860  5893 net.cpp:94] Creating Layer inception_4a/double_3x3_reduce_bn
I1107 08:36:03.861865  5893 net.cpp:458] inception_4a/double_3x3_reduce_bn <- inception_4a/double_3x3_reduce
I1107 08:36:03.861871  5893 net.cpp:120] 0
I1107 08:36:03.861874  5893 net.cpp:126] This layer is inheriting previous layer's sync mode: 1
I1107 08:36:03.861881  5893 net.cpp:414] inception_4a/double_3x3_reduce_bn -> inception_4a/double_3x3_reduce_bn
I1107 08:36:03.861889  5893 net.cpp:159] Setting up inception_4a/double_3x3_reduce_bn
I1107 08:36:03.861907  5893 net.cpp:166] Top shape: 16 96 14 14 (301056)
I1107 08:36:03.861917  5893 layer_factory.hpp:74] Creating layer inception_4a/relu_double_3x3_reduce
I1107 08:36:03.861924  5893 net.cpp:94] Creating Layer inception_4a/relu_double_3x3_reduce
I1107 08:36:03.861928  5893 net.cpp:458] inception_4a/relu_double_3x3_reduce <- inception_4a/double_3x3_reduce_bn
I1107 08:36:03.861934  5893 net.cpp:120] 0
I1107 08:36:03.861937  5893 net.cpp:126] This layer is inheriting previous layer's sync mode: 1
I1107 08:36:03.861943  5893 net.cpp:403] inception_4a/relu_double_3x3_reduce -> inception_4a/double_3x3_reduce_bn (in-place)
I1107 08:36:03.861948  5893 net.cpp:159] Setting up inception_4a/relu_double_3x3_reduce
I1107 08:36:03.862123  5893 net.cpp:166] Top shape: 16 96 14 14 (301056)
I1107 08:36:03.862133  5893 layer_factory.hpp:74] Creating layer inception_4a/double_3x3_1
I1107 08:36:03.862144  5893 net.cpp:94] Creating Layer inception_4a/double_3x3_1
I1107 08:36:03.862149  5893 net.cpp:458] inception_4a/double_3x3_1 <- inception_4a/double_3x3_reduce_bn
I1107 08:36:03.862154  5893 net.cpp:120] 0
I1107 08:36:03.862159  5893 net.cpp:126] This layer is inheriting previous layer's sync mode: 1
I1107 08:36:03.862164  5893 net.cpp:414] inception_4a/double_3x3_1 -> inception_4a/double_3x3_1
I1107 08:36:03.862174  5893 net.cpp:159] Setting up inception_4a/double_3x3_1
I1107 08:36:03.863759  5893 cudnn_conv_layer.cpp:193] Reallocating workspace storage: 10080
I1107 08:36:03.863787  5893 net.cpp:166] Top shape: 16 128 14 14 (401408)
I1107 08:36:03.863800  5893 layer_factory.hpp:74] Creating layer inception_4a/double_3x3_1_bn
I1107 08:36:03.863811  5893 net.cpp:94] Creating Layer inception_4a/double_3x3_1_bn
I1107 08:36:03.863816  5893 net.cpp:458] inception_4a/double_3x3_1_bn <- inception_4a/double_3x3_1
I1107 08:36:03.863821  5893 net.cpp:120] 0
I1107 08:36:03.863826  5893 net.cpp:126] This layer is inheriting previous layer's sync mode: 1
I1107 08:36:03.863850  5893 net.cpp:414] inception_4a/double_3x3_1_bn -> inception_4a/double_3x3_1_bn
I1107 08:36:03.863860  5893 net.cpp:159] Setting up inception_4a/double_3x3_1_bn
I1107 08:36:03.863880  5893 net.cpp:166] Top shape: 16 128 14 14 (401408)
I1107 08:36:03.863891  5893 layer_factory.hpp:74] Creating layer inception_4a/relu_double_3x3_1
I1107 08:36:03.863898  5893 net.cpp:94] Creating Layer inception_4a/relu_double_3x3_1
I1107 08:36:03.863903  5893 net.cpp:458] inception_4a/relu_double_3x3_1 <- inception_4a/double_3x3_1_bn
I1107 08:36:03.863908  5893 net.cpp:120] 0
I1107 08:36:03.863911  5893 net.cpp:126] This layer is inheriting previous layer's sync mode: 1
I1107 08:36:03.863916  5893 net.cpp:403] inception_4a/relu_double_3x3_1 -> inception_4a/double_3x3_1_bn (in-place)
I1107 08:36:03.863922  5893 net.cpp:159] Setting up inception_4a/relu_double_3x3_1
I1107 08:36:03.864267  5893 net.cpp:166] Top shape: 16 128 14 14 (401408)
I1107 08:36:03.864280  5893 layer_factory.hpp:74] Creating layer inception_4a/double_3x3_2
I1107 08:36:03.864294  5893 net.cpp:94] Creating Layer inception_4a/double_3x3_2
I1107 08:36:03.864311  5893 net.cpp:458] inception_4a/double_3x3_2 <- inception_4a/double_3x3_1_bn
I1107 08:36:03.864318  5893 net.cpp:120] 0
I1107 08:36:03.864322  5893 net.cpp:126] This layer is inheriting previous layer's sync mode: 1
I1107 08:36:03.864330  5893 net.cpp:414] inception_4a/double_3x3_2 -> inception_4a/double_3x3_2
I1107 08:36:03.864339  5893 net.cpp:159] Setting up inception_4a/double_3x3_2
I1107 08:36:03.866132  5893 cudnn_conv_layer.cpp:193] Reallocating workspace storage: 10080
I1107 08:36:03.866148  5893 net.cpp:166] Top shape: 16 128 14 14 (401408)
I1107 08:36:03.866170  5893 layer_factory.hpp:74] Creating layer inception_4a/double_3x3_2_bn
I1107 08:36:03.866183  5893 net.cpp:94] Creating Layer inception_4a/double_3x3_2_bn
I1107 08:36:03.866188  5893 net.cpp:458] inception_4a/double_3x3_2_bn <- inception_4a/double_3x3_2
I1107 08:36:03.866205  5893 net.cpp:120] 0
I1107 08:36:03.866210  5893 net.cpp:126] This layer is inheriting previous layer's sync mode: 1
I1107 08:36:03.866216  5893 net.cpp:414] inception_4a/double_3x3_2_bn -> inception_4a/double_3x3_2_bn
I1107 08:36:03.866225  5893 net.cpp:159] Setting up inception_4a/double_3x3_2_bn
I1107 08:36:03.866245  5893 net.cpp:166] Top shape: 16 128 14 14 (401408)
I1107 08:36:03.866255  5893 layer_factory.hpp:74] Creating layer inception_4a/relu_double_3x3_2
I1107 08:36:03.866263  5893 net.cpp:94] Creating Layer inception_4a/relu_double_3x3_2
I1107 08:36:03.866268  5893 net.cpp:458] inception_4a/relu_double_3x3_2 <- inception_4a/double_3x3_2_bn
I1107 08:36:03.866274  5893 net.cpp:120] 0
I1107 08:36:03.866278  5893 net.cpp:126] This layer is inheriting previous layer's sync mode: 1
I1107 08:36:03.866284  5893 net.cpp:403] inception_4a/relu_double_3x3_2 -> inception_4a/double_3x3_2_bn (in-place)
I1107 08:36:03.866291  5893 net.cpp:159] Setting up inception_4a/relu_double_3x3_2
I1107 08:36:03.866497  5893 net.cpp:166] Top shape: 16 128 14 14 (401408)
I1107 08:36:03.866508  5893 layer_factory.hpp:74] Creating layer inception_4a/pool
I1107 08:36:03.866514  5893 layer_factory.cpp:55] CUDNN does not support padding or multiple tops. Using Caffe's own pooling layer.
I1107 08:36:03.866521  5893 net.cpp:94] Creating Layer inception_4a/pool
I1107 08:36:03.866528  5893 net.cpp:458] inception_4a/pool <- inception_3c/output_inception_3c/output_0_split_3
I1107 08:36:03.866533  5893 net.cpp:120] 0
I1107 08:36:03.866538  5893 net.cpp:126] This layer is inheriting previous layer's sync mode: 1
I1107 08:36:03.866544  5893 net.cpp:414] inception_4a/pool -> inception_4a/pool
I1107 08:36:03.866551  5893 net.cpp:159] Setting up inception_4a/pool
I1107 08:36:03.866559  5893 net.cpp:166] Top shape: 16 576 14 14 (1806336)
I1107 08:36:03.866564  5893 layer_factory.hpp:74] Creating layer inception_4a/pool_proj
I1107 08:36:03.866574  5893 net.cpp:94] Creating Layer inception_4a/pool_proj
I1107 08:36:03.866578  5893 net.cpp:458] inception_4a/pool_proj <- inception_4a/pool
I1107 08:36:03.866603  5893 net.cpp:120] 0
I1107 08:36:03.866614  5893 net.cpp:126] This layer is inheriting previous layer's sync mode: 1
I1107 08:36:03.866622  5893 net.cpp:414] inception_4a/pool_proj -> inception_4a/pool_proj
I1107 08:36:03.866632  5893 net.cpp:159] Setting up inception_4a/pool_proj
I1107 08:36:03.867992  5893 cudnn_conv_layer.cpp:193] Reallocating workspace storage: 10080
I1107 08:36:03.868010  5893 net.cpp:166] Top shape: 16 128 14 14 (401408)
I1107 08:36:03.868032  5893 layer_factory.hpp:74] Creating layer inception_4a/pool_proj_bn
I1107 08:36:03.868043  5893 net.cpp:94] Creating Layer inception_4a/pool_proj_bn
I1107 08:36:03.868049  5893 net.cpp:458] inception_4a/pool_proj_bn <- inception_4a/pool_proj
I1107 08:36:03.868055  5893 net.cpp:120] 0
I1107 08:36:03.868059  5893 net.cpp:126] This layer is inheriting previous layer's sync mode: 1
I1107 08:36:03.868067  5893 net.cpp:414] inception_4a/pool_proj_bn -> inception_4a/pool_proj_bn
I1107 08:36:03.868075  5893 net.cpp:159] Setting up inception_4a/pool_proj_bn
I1107 08:36:03.868095  5893 net.cpp:166] Top shape: 16 128 14 14 (401408)
I1107 08:36:03.868106  5893 layer_factory.hpp:74] Creating layer inception_4a/relu_pool_proj
I1107 08:36:03.868114  5893 net.cpp:94] Creating Layer inception_4a/relu_pool_proj
I1107 08:36:03.868119  5893 net.cpp:458] inception_4a/relu_pool_proj <- inception_4a/pool_proj_bn
I1107 08:36:03.868124  5893 net.cpp:120] 0
I1107 08:36:03.868127  5893 net.cpp:126] This layer is inheriting previous layer's sync mode: 1
I1107 08:36:03.868132  5893 net.cpp:403] inception_4a/relu_pool_proj -> inception_4a/pool_proj_bn (in-place)
I1107 08:36:03.868139  5893 net.cpp:159] Setting up inception_4a/relu_pool_proj
I1107 08:36:03.868338  5893 net.cpp:166] Top shape: 16 128 14 14 (401408)
I1107 08:36:03.868350  5893 layer_factory.hpp:74] Creating layer inception_4a/output
I1107 08:36:03.868357  5893 net.cpp:94] Creating Layer inception_4a/output
I1107 08:36:03.868362  5893 net.cpp:458] inception_4a/output <- inception_4a/1x1_bn
I1107 08:36:03.868369  5893 net.cpp:458] inception_4a/output <- inception_4a/3x3_bn
I1107 08:36:03.868376  5893 net.cpp:458] inception_4a/output <- inception_4a/double_3x3_2_bn
I1107 08:36:03.868381  5893 net.cpp:458] inception_4a/output <- inception_4a/pool_proj_bn
I1107 08:36:03.868387  5893 net.cpp:120] 0
I1107 08:36:03.868391  5893 net.cpp:126] This layer is inheriting previous layer's sync mode: 1
I1107 08:36:03.868397  5893 net.cpp:414] inception_4a/output -> inception_4a/output
I1107 08:36:03.868405  5893 net.cpp:159] Setting up inception_4a/output
I1107 08:36:03.868413  5893 net.cpp:166] Top shape: 16 576 14 14 (1806336)
I1107 08:36:03.868418  5893 layer_factory.hpp:74] Creating layer inception_4a/output_inception_4a/output_0_split
I1107 08:36:03.868427  5893 net.cpp:94] Creating Layer inception_4a/output_inception_4a/output_0_split
I1107 08:36:03.868432  5893 net.cpp:458] inception_4a/output_inception_4a/output_0_split <- inception_4a/output
I1107 08:36:03.868438  5893 net.cpp:120] 0
I1107 08:36:03.868441  5893 net.cpp:126] This layer is inheriting previous layer's sync mode: 1
I1107 08:36:03.868448  5893 net.cpp:414] inception_4a/output_inception_4a/output_0_split -> inception_4a/output_inception_4a/output_0_split_0
I1107 08:36:03.868455  5893 net.cpp:414] inception_4a/output_inception_4a/output_0_split -> inception_4a/output_inception_4a/output_0_split_1
I1107 08:36:03.868463  5893 net.cpp:414] inception_4a/output_inception_4a/output_0_split -> inception_4a/output_inception_4a/output_0_split_2
I1107 08:36:03.868471  5893 net.cpp:414] inception_4a/output_inception_4a/output_0_split -> inception_4a/output_inception_4a/output_0_split_3
I1107 08:36:03.868479  5893 net.cpp:159] Setting up inception_4a/output_inception_4a/output_0_split
I1107 08:36:03.868486  5893 net.cpp:166] Top shape: 16 576 14 14 (1806336)
I1107 08:36:03.868491  5893 net.cpp:166] Top shape: 16 576 14 14 (1806336)
I1107 08:36:03.868496  5893 net.cpp:166] Top shape: 16 576 14 14 (1806336)
I1107 08:36:03.868500  5893 net.cpp:166] Top shape: 16 576 14 14 (1806336)
I1107 08:36:03.868518  5893 layer_factory.hpp:74] Creating layer inception_4b/1x1
I1107 08:36:03.868530  5893 net.cpp:94] Creating Layer inception_4b/1x1
I1107 08:36:03.868535  5893 net.cpp:458] inception_4b/1x1 <- inception_4a/output_inception_4a/output_0_split_0
I1107 08:36:03.868541  5893 net.cpp:120] 0
I1107 08:36:03.868546  5893 net.cpp:126] This layer is inheriting previous layer's sync mode: 1
I1107 08:36:03.868553  5893 net.cpp:414] inception_4b/1x1 -> inception_4b/1x1
I1107 08:36:03.868561  5893 net.cpp:159] Setting up inception_4b/1x1
I1107 08:36:03.870128  5893 cudnn_conv_layer.cpp:193] Reallocating workspace storage: 10080
I1107 08:36:03.870146  5893 net.cpp:166] Top shape: 16 192 14 14 (602112)
I1107 08:36:03.870168  5893 layer_factory.hpp:74] Creating layer inception_4b/1x1_bn
I1107 08:36:03.870180  5893 net.cpp:94] Creating Layer inception_4b/1x1_bn
I1107 08:36:03.870187  5893 net.cpp:458] inception_4b/1x1_bn <- inception_4b/1x1
I1107 08:36:03.870193  5893 net.cpp:120] 0
I1107 08:36:03.870198  5893 net.cpp:126] This layer is inheriting previous layer's sync mode: 1
I1107 08:36:03.870204  5893 net.cpp:414] inception_4b/1x1_bn -> inception_4b/1x1_bn
I1107 08:36:03.870213  5893 net.cpp:159] Setting up inception_4b/1x1_bn
I1107 08:36:03.870234  5893 net.cpp:166] Top shape: 16 192 14 14 (602112)
I1107 08:36:03.870244  5893 layer_factory.hpp:74] Creating layer inception_4b/relu_1x1
I1107 08:36:03.870252  5893 net.cpp:94] Creating Layer inception_4b/relu_1x1
I1107 08:36:03.870257  5893 net.cpp:458] inception_4b/relu_1x1 <- inception_4b/1x1_bn
I1107 08:36:03.870262  5893 net.cpp:120] 0
I1107 08:36:03.870266  5893 net.cpp:126] This layer is inheriting previous layer's sync mode: 1
I1107 08:36:03.870272  5893 net.cpp:403] inception_4b/relu_1x1 -> inception_4b/1x1_bn (in-place)
I1107 08:36:03.870278  5893 net.cpp:159] Setting up inception_4b/relu_1x1
I1107 08:36:03.870625  5893 net.cpp:166] Top shape: 16 192 14 14 (602112)
I1107 08:36:03.870637  5893 layer_factory.hpp:74] Creating layer inception_4b/3x3_reduce
I1107 08:36:03.870661  5893 net.cpp:94] Creating Layer inception_4b/3x3_reduce
I1107 08:36:03.870667  5893 net.cpp:458] inception_4b/3x3_reduce <- inception_4a/output_inception_4a/output_0_split_1
I1107 08:36:03.870674  5893 net.cpp:120] 0
I1107 08:36:03.870678  5893 net.cpp:126] This layer is inheriting previous layer's sync mode: 1
I1107 08:36:03.870685  5893 net.cpp:414] inception_4b/3x3_reduce -> inception_4b/3x3_reduce
I1107 08:36:03.870694  5893 net.cpp:159] Setting up inception_4b/3x3_reduce
I1107 08:36:03.871970  5893 cudnn_conv_layer.cpp:193] Reallocating workspace storage: 10080
I1107 08:36:03.871987  5893 net.cpp:166] Top shape: 16 96 14 14 (301056)
I1107 08:36:03.872010  5893 layer_factory.hpp:74] Creating layer inception_4b/3x3_reduce_bn
I1107 08:36:03.872025  5893 net.cpp:94] Creating Layer inception_4b/3x3_reduce_bn
I1107 08:36:03.872030  5893 net.cpp:458] inception_4b/3x3_reduce_bn <- inception_4b/3x3_reduce
I1107 08:36:03.872036  5893 net.cpp:120] 0
I1107 08:36:03.872040  5893 net.cpp:126] This layer is inheriting previous layer's sync mode: 1
I1107 08:36:03.872048  5893 net.cpp:414] inception_4b/3x3_reduce_bn -> inception_4b/3x3_reduce_bn
I1107 08:36:03.872057  5893 net.cpp:159] Setting up inception_4b/3x3_reduce_bn
I1107 08:36:03.872077  5893 net.cpp:166] Top shape: 16 96 14 14 (301056)
I1107 08:36:03.872089  5893 layer_factory.hpp:74] Creating layer inception_4b/relu_3x3_reduce
I1107 08:36:03.872097  5893 net.cpp:94] Creating Layer inception_4b/relu_3x3_reduce
I1107 08:36:03.872102  5893 net.cpp:458] inception_4b/relu_3x3_reduce <- inception_4b/3x3_reduce_bn
I1107 08:36:03.872107  5893 net.cpp:120] 0
I1107 08:36:03.872112  5893 net.cpp:126] This layer is inheriting previous layer's sync mode: 1
I1107 08:36:03.872117  5893 net.cpp:403] inception_4b/relu_3x3_reduce -> inception_4b/3x3_reduce_bn (in-place)
I1107 08:36:03.872124  5893 net.cpp:159] Setting up inception_4b/relu_3x3_reduce
I1107 08:36:03.872328  5893 net.cpp:166] Top shape: 16 96 14 14 (301056)
I1107 08:36:03.872339  5893 layer_factory.hpp:74] Creating layer inception_4b/3x3
I1107 08:36:03.872361  5893 net.cpp:94] Creating Layer inception_4b/3x3
I1107 08:36:03.872367  5893 net.cpp:458] inception_4b/3x3 <- inception_4b/3x3_reduce_bn
I1107 08:36:03.872373  5893 net.cpp:120] 0
I1107 08:36:03.872377  5893 net.cpp:126] This layer is inheriting previous layer's sync mode: 1
I1107 08:36:03.872385  5893 net.cpp:414] inception_4b/3x3 -> inception_4b/3x3
I1107 08:36:03.872393  5893 net.cpp:159] Setting up inception_4b/3x3
I1107 08:36:03.874151  5893 cudnn_conv_layer.cpp:193] Reallocating workspace storage: 10080
I1107 08:36:03.874169  5893 net.cpp:166] Top shape: 16 128 14 14 (401408)
I1107 08:36:03.874193  5893 layer_factory.hpp:74] Creating layer inception_4b/3x3_bn
I1107 08:36:03.874205  5893 net.cpp:94] Creating Layer inception_4b/3x3_bn
I1107 08:36:03.874212  5893 net.cpp:458] inception_4b/3x3_bn <- inception_4b/3x3
I1107 08:36:03.874217  5893 net.cpp:120] 0
I1107 08:36:03.874222  5893 net.cpp:126] This layer is inheriting previous layer's sync mode: 1
I1107 08:36:03.874229  5893 net.cpp:414] inception_4b/3x3_bn -> inception_4b/3x3_bn
I1107 08:36:03.874238  5893 net.cpp:159] Setting up inception_4b/3x3_bn
I1107 08:36:03.874258  5893 net.cpp:166] Top shape: 16 128 14 14 (401408)
I1107 08:36:03.874269  5893 layer_factory.hpp:74] Creating layer inception_4b/relu_3x3
I1107 08:36:03.874277  5893 net.cpp:94] Creating Layer inception_4b/relu_3x3
I1107 08:36:03.874284  5893 net.cpp:458] inception_4b/relu_3x3 <- inception_4b/3x3_bn
I1107 08:36:03.874289  5893 net.cpp:120] 0
I1107 08:36:03.874292  5893 net.cpp:126] This layer is inheriting previous layer's sync mode: 1
I1107 08:36:03.874299  5893 net.cpp:403] inception_4b/relu_3x3 -> inception_4b/3x3_bn (in-place)
I1107 08:36:03.874305  5893 net.cpp:159] Setting up inception_4b/relu_3x3
I1107 08:36:03.874506  5893 net.cpp:166] Top shape: 16 128 14 14 (401408)
I1107 08:36:03.874516  5893 layer_factory.hpp:74] Creating layer inception_4b/double_3x3_reduce
I1107 08:36:03.874527  5893 net.cpp:94] Creating Layer inception_4b/double_3x3_reduce
I1107 08:36:03.874532  5893 net.cpp:458] inception_4b/double_3x3_reduce <- inception_4a/output_inception_4a/output_0_split_2
I1107 08:36:03.874538  5893 net.cpp:120] 0
I1107 08:36:03.874542  5893 net.cpp:126] This layer is inheriting previous layer's sync mode: 1
I1107 08:36:03.874550  5893 net.cpp:414] inception_4b/double_3x3_reduce -> inception_4b/double_3x3_reduce
I1107 08:36:03.874559  5893 net.cpp:159] Setting up inception_4b/double_3x3_reduce
I1107 08:36:03.875785  5893 cudnn_conv_layer.cpp:193] Reallocating workspace storage: 10080
I1107 08:36:03.875802  5893 net.cpp:166] Top shape: 16 96 14 14 (301056)
I1107 08:36:03.875826  5893 layer_factory.hpp:74] Creating layer inception_4b/double_3x3_reduce_bn
I1107 08:36:03.875838  5893 net.cpp:94] Creating Layer inception_4b/double_3x3_reduce_bn
I1107 08:36:03.875844  5893 net.cpp:458] inception_4b/double_3x3_reduce_bn <- inception_4b/double_3x3_reduce
I1107 08:36:03.875850  5893 net.cpp:120] 0
I1107 08:36:03.875854  5893 net.cpp:126] This layer is inheriting previous layer's sync mode: 1
I1107 08:36:03.875862  5893 net.cpp:414] inception_4b/double_3x3_reduce_bn -> inception_4b/double_3x3_reduce_bn
I1107 08:36:03.875871  5893 net.cpp:159] Setting up inception_4b/double_3x3_reduce_bn
I1107 08:36:03.875891  5893 net.cpp:166] Top shape: 16 96 14 14 (301056)
I1107 08:36:03.875903  5893 layer_factory.hpp:74] Creating layer inception_4b/relu_double_3x3_reduce
I1107 08:36:03.875910  5893 net.cpp:94] Creating Layer inception_4b/relu_double_3x3_reduce
I1107 08:36:03.875916  5893 net.cpp:458] inception_4b/relu_double_3x3_reduce <- inception_4b/double_3x3_reduce_bn
I1107 08:36:03.875921  5893 net.cpp:120] 0
I1107 08:36:03.875926  5893 net.cpp:126] This layer is inheriting previous layer's sync mode: 1
I1107 08:36:03.875931  5893 net.cpp:403] inception_4b/relu_double_3x3_reduce -> inception_4b/double_3x3_reduce_bn (in-place)
I1107 08:36:03.875937  5893 net.cpp:159] Setting up inception_4b/relu_double_3x3_reduce
I1107 08:36:03.876296  5893 net.cpp:166] Top shape: 16 96 14 14 (301056)
I1107 08:36:03.876309  5893 layer_factory.hpp:74] Creating layer inception_4b/double_3x3_1
I1107 08:36:03.876333  5893 net.cpp:94] Creating Layer inception_4b/double_3x3_1
I1107 08:36:03.876339  5893 net.cpp:458] inception_4b/double_3x3_1 <- inception_4b/double_3x3_reduce_bn
I1107 08:36:03.876345  5893 net.cpp:120] 0
I1107 08:36:03.876349  5893 net.cpp:126] This layer is inheriting previous layer's sync mode: 1
I1107 08:36:03.876356  5893 net.cpp:414] inception_4b/double_3x3_1 -> inception_4b/double_3x3_1
I1107 08:36:03.876365  5893 net.cpp:159] Setting up inception_4b/double_3x3_1
I1107 08:36:03.877959  5893 cudnn_conv_layer.cpp:193] Reallocating workspace storage: 10080
I1107 08:36:03.877975  5893 net.cpp:166] Top shape: 16 128 14 14 (401408)
I1107 08:36:03.877997  5893 layer_factory.hpp:74] Creating layer inception_4b/double_3x3_1_bn
I1107 08:36:03.878010  5893 net.cpp:94] Creating Layer inception_4b/double_3x3_1_bn
I1107 08:36:03.878016  5893 net.cpp:458] inception_4b/double_3x3_1_bn <- inception_4b/double_3x3_1
I1107 08:36:03.878022  5893 net.cpp:120] 0
I1107 08:36:03.878027  5893 net.cpp:126] This layer is inheriting previous layer's sync mode: 1
I1107 08:36:03.878034  5893 net.cpp:414] inception_4b/double_3x3_1_bn -> inception_4b/double_3x3_1_bn
I1107 08:36:03.878043  5893 net.cpp:159] Setting up inception_4b/double_3x3_1_bn
I1107 08:36:03.878064  5893 net.cpp:166] Top shape: 16 128 14 14 (401408)
I1107 08:36:03.878075  5893 layer_factory.hpp:74] Creating layer inception_4b/relu_double_3x3_1
I1107 08:36:03.878083  5893 net.cpp:94] Creating Layer inception_4b/relu_double_3x3_1
I1107 08:36:03.878088  5893 net.cpp:458] inception_4b/relu_double_3x3_1 <- inception_4b/double_3x3_1_bn
I1107 08:36:03.878094  5893 net.cpp:120] 0
I1107 08:36:03.878098  5893 net.cpp:126] This layer is inheriting previous layer's sync mode: 1
I1107 08:36:03.878103  5893 net.cpp:403] inception_4b/relu_double_3x3_1 -> inception_4b/double_3x3_1_bn (in-place)
I1107 08:36:03.878109  5893 net.cpp:159] Setting up inception_4b/relu_double_3x3_1
I1107 08:36:03.878312  5893 net.cpp:166] Top shape: 16 128 14 14 (401408)
I1107 08:36:03.878322  5893 layer_factory.hpp:74] Creating layer inception_4b/double_3x3_2
I1107 08:36:03.878332  5893 net.cpp:94] Creating Layer inception_4b/double_3x3_2
I1107 08:36:03.878339  5893 net.cpp:458] inception_4b/double_3x3_2 <- inception_4b/double_3x3_1_bn
I1107 08:36:03.878343  5893 net.cpp:120] 0
I1107 08:36:03.878348  5893 net.cpp:126] This layer is inheriting previous layer's sync mode: 1
I1107 08:36:03.878355  5893 net.cpp:414] inception_4b/double_3x3_2 -> inception_4b/double_3x3_2
I1107 08:36:03.878363  5893 net.cpp:159] Setting up inception_4b/double_3x3_2
I1107 08:36:03.880228  5893 cudnn_conv_layer.cpp:193] Reallocating workspace storage: 10080
I1107 08:36:03.880244  5893 net.cpp:166] Top shape: 16 128 14 14 (401408)
I1107 08:36:03.880267  5893 layer_factory.hpp:74] Creating layer inception_4b/double_3x3_2_bn
I1107 08:36:03.880280  5893 net.cpp:94] Creating Layer inception_4b/double_3x3_2_bn
I1107 08:36:03.880285  5893 net.cpp:458] inception_4b/double_3x3_2_bn <- inception_4b/double_3x3_2
I1107 08:36:03.880292  5893 net.cpp:120] 0
I1107 08:36:03.880296  5893 net.cpp:126] This layer is inheriting previous layer's sync mode: 1
I1107 08:36:03.880303  5893 net.cpp:414] inception_4b/double_3x3_2_bn -> inception_4b/double_3x3_2_bn
I1107 08:36:03.880312  5893 net.cpp:159] Setting up inception_4b/double_3x3_2_bn
I1107 08:36:03.880332  5893 net.cpp:166] Top shape: 16 128 14 14 (401408)
I1107 08:36:03.880343  5893 layer_factory.hpp:74] Creating layer inception_4b/relu_double_3x3_2
I1107 08:36:03.880352  5893 net.cpp:94] Creating Layer inception_4b/relu_double_3x3_2
I1107 08:36:03.880357  5893 net.cpp:458] inception_4b/relu_double_3x3_2 <- inception_4b/double_3x3_2_bn
I1107 08:36:03.880362  5893 net.cpp:120] 0
I1107 08:36:03.880367  5893 net.cpp:126] This layer is inheriting previous layer's sync mode: 1
I1107 08:36:03.880372  5893 net.cpp:403] inception_4b/relu_double_3x3_2 -> inception_4b/double_3x3_2_bn (in-place)
I1107 08:36:03.880393  5893 net.cpp:159] Setting up inception_4b/relu_double_3x3_2
I1107 08:36:03.880600  5893 net.cpp:166] Top shape: 16 128 14 14 (401408)
I1107 08:36:03.880610  5893 layer_factory.hpp:74] Creating layer inception_4b/pool
I1107 08:36:03.880617  5893 layer_factory.cpp:55] CUDNN does not support padding or multiple tops. Using Caffe's own pooling layer.
I1107 08:36:03.880625  5893 net.cpp:94] Creating Layer inception_4b/pool
I1107 08:36:03.880630  5893 net.cpp:458] inception_4b/pool <- inception_4a/output_inception_4a/output_0_split_3
I1107 08:36:03.880636  5893 net.cpp:120] 0
I1107 08:36:03.880641  5893 net.cpp:126] This layer is inheriting previous layer's sync mode: 1
I1107 08:36:03.880647  5893 net.cpp:414] inception_4b/pool -> inception_4b/pool
I1107 08:36:03.880656  5893 net.cpp:159] Setting up inception_4b/pool
I1107 08:36:03.880663  5893 net.cpp:166] Top shape: 16 576 14 14 (1806336)
I1107 08:36:03.880668  5893 layer_factory.hpp:74] Creating layer inception_4b/pool_proj
I1107 08:36:03.880679  5893 net.cpp:94] Creating Layer inception_4b/pool_proj
I1107 08:36:03.880686  5893 net.cpp:458] inception_4b/pool_proj <- inception_4b/pool
I1107 08:36:03.880692  5893 net.cpp:120] 0
I1107 08:36:03.880695  5893 net.cpp:126] This layer is inheriting previous layer's sync mode: 1
I1107 08:36:03.880702  5893 net.cpp:414] inception_4b/pool_proj -> inception_4b/pool_proj
I1107 08:36:03.880712  5893 net.cpp:159] Setting up inception_4b/pool_proj
I1107 08:36:03.882051  5893 cudnn_conv_layer.cpp:193] Reallocating workspace storage: 10080
I1107 08:36:03.882068  5893 net.cpp:166] Top shape: 16 128 14 14 (401408)
I1107 08:36:03.882093  5893 layer_factory.hpp:74] Creating layer inception_4b/pool_proj_bn
I1107 08:36:03.882103  5893 net.cpp:94] Creating Layer inception_4b/pool_proj_bn
I1107 08:36:03.882109  5893 net.cpp:458] inception_4b/pool_proj_bn <- inception_4b/pool_proj
I1107 08:36:03.882115  5893 net.cpp:120] 0
I1107 08:36:03.882120  5893 net.cpp:126] This layer is inheriting previous layer's sync mode: 1
I1107 08:36:03.882128  5893 net.cpp:414] inception_4b/pool_proj_bn -> inception_4b/pool_proj_bn
I1107 08:36:03.882136  5893 net.cpp:159] Setting up inception_4b/pool_proj_bn
I1107 08:36:03.882156  5893 net.cpp:166] Top shape: 16 128 14 14 (401408)
I1107 08:36:03.882167  5893 layer_factory.hpp:74] Creating layer inception_4b/relu_pool_proj
I1107 08:36:03.882176  5893 net.cpp:94] Creating Layer inception_4b/relu_pool_proj
I1107 08:36:03.882181  5893 net.cpp:458] inception_4b/relu_pool_proj <- inception_4b/pool_proj_bn
I1107 08:36:03.882186  5893 net.cpp:120] 0
I1107 08:36:03.882190  5893 net.cpp:126] This layer is inheriting previous layer's sync mode: 1
I1107 08:36:03.882196  5893 net.cpp:403] inception_4b/relu_pool_proj -> inception_4b/pool_proj_bn (in-place)
I1107 08:36:03.882202  5893 net.cpp:159] Setting up inception_4b/relu_pool_proj
I1107 08:36:03.882604  5893 net.cpp:166] Top shape: 16 128 14 14 (401408)
I1107 08:36:03.882617  5893 layer_factory.hpp:74] Creating layer inception_4b/output
I1107 08:36:03.882637  5893 net.cpp:94] Creating Layer inception_4b/output
I1107 08:36:03.882644  5893 net.cpp:458] inception_4b/output <- inception_4b/1x1_bn
I1107 08:36:03.882652  5893 net.cpp:458] inception_4b/output <- inception_4b/3x3_bn
I1107 08:36:03.882658  5893 net.cpp:458] inception_4b/output <- inception_4b/double_3x3_2_bn
I1107 08:36:03.882663  5893 net.cpp:458] inception_4b/output <- inception_4b/pool_proj_bn
I1107 08:36:03.882668  5893 net.cpp:120] 0
I1107 08:36:03.882673  5893 net.cpp:126] This layer is inheriting previous layer's sync mode: 1
I1107 08:36:03.882679  5893 net.cpp:414] inception_4b/output -> inception_4b/output
I1107 08:36:03.882686  5893 net.cpp:159] Setting up inception_4b/output
I1107 08:36:03.882695  5893 net.cpp:166] Top shape: 16 576 14 14 (1806336)
I1107 08:36:03.882701  5893 layer_factory.hpp:74] Creating layer inception_4b/output_inception_4b/output_0_split
I1107 08:36:03.882709  5893 net.cpp:94] Creating Layer inception_4b/output_inception_4b/output_0_split
I1107 08:36:03.882726  5893 net.cpp:458] inception_4b/output_inception_4b/output_0_split <- inception_4b/output
I1107 08:36:03.882733  5893 net.cpp:120] 0
I1107 08:36:03.882737  5893 net.cpp:126] This layer is inheriting previous layer's sync mode: 1
I1107 08:36:03.882745  5893 net.cpp:414] inception_4b/output_inception_4b/output_0_split -> inception_4b/output_inception_4b/output_0_split_0
I1107 08:36:03.882752  5893 net.cpp:414] inception_4b/output_inception_4b/output_0_split -> inception_4b/output_inception_4b/output_0_split_1
I1107 08:36:03.882761  5893 net.cpp:414] inception_4b/output_inception_4b/output_0_split -> inception_4b/output_inception_4b/output_0_split_2
I1107 08:36:03.882768  5893 net.cpp:414] inception_4b/output_inception_4b/output_0_split -> inception_4b/output_inception_4b/output_0_split_3
I1107 08:36:03.882774  5893 net.cpp:159] Setting up inception_4b/output_inception_4b/output_0_split
I1107 08:36:03.882783  5893 net.cpp:166] Top shape: 16 576 14 14 (1806336)
I1107 08:36:03.882788  5893 net.cpp:166] Top shape: 16 576 14 14 (1806336)
I1107 08:36:03.882792  5893 net.cpp:166] Top shape: 16 576 14 14 (1806336)
I1107 08:36:03.882797  5893 net.cpp:166] Top shape: 16 576 14 14 (1806336)
I1107 08:36:03.882802  5893 layer_factory.hpp:74] Creating layer inception_4c/1x1
I1107 08:36:03.882810  5893 net.cpp:94] Creating Layer inception_4c/1x1
I1107 08:36:03.882817  5893 net.cpp:458] inception_4c/1x1 <- inception_4b/output_inception_4b/output_0_split_0
I1107 08:36:03.882822  5893 net.cpp:120] 0
I1107 08:36:03.882825  5893 net.cpp:126] This layer is inheriting previous layer's sync mode: 1
I1107 08:36:03.882832  5893 net.cpp:414] inception_4c/1x1 -> inception_4c/1x1
I1107 08:36:03.882839  5893 net.cpp:159] Setting up inception_4c/1x1
I1107 08:36:03.884301  5893 cudnn_conv_layer.cpp:193] Reallocating workspace storage: 10080
I1107 08:36:03.884318  5893 net.cpp:166] Top shape: 16 160 14 14 (501760)
I1107 08:36:03.884342  5893 layer_factory.hpp:74] Creating layer inception_4c/1x1_bn
I1107 08:36:03.884366  5893 net.cpp:94] Creating Layer inception_4c/1x1_bn
I1107 08:36:03.884373  5893 net.cpp:458] inception_4c/1x1_bn <- inception_4c/1x1
I1107 08:36:03.884379  5893 net.cpp:120] 0
I1107 08:36:03.884383  5893 net.cpp:126] This layer is inheriting previous layer's sync mode: 1
I1107 08:36:03.884390  5893 net.cpp:414] inception_4c/1x1_bn -> inception_4c/1x1_bn
I1107 08:36:03.884400  5893 net.cpp:159] Setting up inception_4c/1x1_bn
I1107 08:36:03.884419  5893 net.cpp:166] Top shape: 16 160 14 14 (501760)
I1107 08:36:03.884430  5893 layer_factory.hpp:74] Creating layer inception_4c/relu_1x1
I1107 08:36:03.884439  5893 net.cpp:94] Creating Layer inception_4c/relu_1x1
I1107 08:36:03.884445  5893 net.cpp:458] inception_4c/relu_1x1 <- inception_4c/1x1_bn
I1107 08:36:03.884450  5893 net.cpp:120] 0
I1107 08:36:03.884454  5893 net.cpp:126] This layer is inheriting previous layer's sync mode: 1
I1107 08:36:03.884460  5893 net.cpp:403] inception_4c/relu_1x1 -> inception_4c/1x1_bn (in-place)
I1107 08:36:03.884466  5893 net.cpp:159] Setting up inception_4c/relu_1x1
I1107 08:36:03.884673  5893 net.cpp:166] Top shape: 16 160 14 14 (501760)
I1107 08:36:03.884683  5893 layer_factory.hpp:74] Creating layer inception_4c/3x3_reduce
I1107 08:36:03.884695  5893 net.cpp:94] Creating Layer inception_4c/3x3_reduce
I1107 08:36:03.884699  5893 net.cpp:458] inception_4c/3x3_reduce <- inception_4b/output_inception_4b/output_0_split_1
I1107 08:36:03.884704  5893 net.cpp:120] 0
I1107 08:36:03.884708  5893 net.cpp:126] This layer is inheriting previous layer's sync mode: 1
I1107 08:36:03.884716  5893 net.cpp:414] inception_4c/3x3_reduce -> inception_4c/3x3_reduce
I1107 08:36:03.884723  5893 net.cpp:159] Setting up inception_4c/3x3_reduce
I1107 08:36:03.886062  5893 cudnn_conv_layer.cpp:193] Reallocating workspace storage: 10080
I1107 08:36:03.886080  5893 net.cpp:166] Top shape: 16 128 14 14 (401408)
I1107 08:36:03.886102  5893 layer_factory.hpp:74] Creating layer inception_4c/3x3_reduce_bn
I1107 08:36:03.886113  5893 net.cpp:94] Creating Layer inception_4c/3x3_reduce_bn
I1107 08:36:03.886132  5893 net.cpp:458] inception_4c/3x3_reduce_bn <- inception_4c/3x3_reduce
I1107 08:36:03.886139  5893 net.cpp:120] 0
I1107 08:36:03.886143  5893 net.cpp:126] This layer is inheriting previous layer's sync mode: 1
I1107 08:36:03.886150  5893 net.cpp:414] inception_4c/3x3_reduce_bn -> inception_4c/3x3_reduce_bn
I1107 08:36:03.886159  5893 net.cpp:159] Setting up inception_4c/3x3_reduce_bn
I1107 08:36:03.886179  5893 net.cpp:166] Top shape: 16 128 14 14 (401408)
I1107 08:36:03.886189  5893 layer_factory.hpp:74] Creating layer inception_4c/relu_3x3_reduce
I1107 08:36:03.886198  5893 net.cpp:94] Creating Layer inception_4c/relu_3x3_reduce
I1107 08:36:03.886204  5893 net.cpp:458] inception_4c/relu_3x3_reduce <- inception_4c/3x3_reduce_bn
I1107 08:36:03.886209  5893 net.cpp:120] 0
I1107 08:36:03.886214  5893 net.cpp:126] This layer is inheriting previous layer's sync mode: 1
I1107 08:36:03.886219  5893 net.cpp:403] inception_4c/relu_3x3_reduce -> inception_4c/3x3_reduce_bn (in-place)
I1107 08:36:03.886226  5893 net.cpp:159] Setting up inception_4c/relu_3x3_reduce
I1107 08:36:03.886432  5893 net.cpp:166] Top shape: 16 128 14 14 (401408)
I1107 08:36:03.886443  5893 layer_factory.hpp:74] Creating layer inception_4c/3x3
I1107 08:36:03.886452  5893 net.cpp:94] Creating Layer inception_4c/3x3
I1107 08:36:03.886458  5893 net.cpp:458] inception_4c/3x3 <- inception_4c/3x3_reduce_bn
I1107 08:36:03.886464  5893 net.cpp:120] 0
I1107 08:36:03.886468  5893 net.cpp:126] This layer is inheriting previous layer's sync mode: 1
I1107 08:36:03.886476  5893 net.cpp:414] inception_4c/3x3 -> inception_4c/3x3
I1107 08:36:03.886484  5893 net.cpp:159] Setting up inception_4c/3x3
I1107 08:36:03.888566  5893 cudnn_conv_layer.cpp:193] Reallocating workspace storage: 10080
I1107 08:36:03.888582  5893 net.cpp:166] Top shape: 16 160 14 14 (501760)
I1107 08:36:03.888607  5893 layer_factory.hpp:74] Creating layer inception_4c/3x3_bn
I1107 08:36:03.888618  5893 net.cpp:94] Creating Layer inception_4c/3x3_bn
I1107 08:36:03.888624  5893 net.cpp:458] inception_4c/3x3_bn <- inception_4c/3x3
I1107 08:36:03.888630  5893 net.cpp:120] 0
I1107 08:36:03.888634  5893 net.cpp:126] This layer is inheriting previous layer's sync mode: 1
I1107 08:36:03.888641  5893 net.cpp:414] inception_4c/3x3_bn -> inception_4c/3x3_bn
I1107 08:36:03.888650  5893 net.cpp:159] Setting up inception_4c/3x3_bn
I1107 08:36:03.888676  5893 net.cpp:166] Top shape: 16 160 14 14 (501760)
I1107 08:36:03.888687  5893 layer_factory.hpp:74] Creating layer inception_4c/relu_3x3
I1107 08:36:03.888695  5893 net.cpp:94] Creating Layer inception_4c/relu_3x3
I1107 08:36:03.888700  5893 net.cpp:458] inception_4c/relu_3x3 <- inception_4c/3x3_bn
I1107 08:36:03.888723  5893 net.cpp:120] 0
I1107 08:36:03.888727  5893 net.cpp:126] This layer is inheriting previous layer's sync mode: 1
I1107 08:36:03.888732  5893 net.cpp:403] inception_4c/relu_3x3 -> inception_4c/3x3_bn (in-place)
I1107 08:36:03.888739  5893 net.cpp:159] Setting up inception_4c/relu_3x3
I1107 08:36:03.889075  5893 net.cpp:166] Top shape: 16 160 14 14 (501760)
I1107 08:36:03.889087  5893 layer_factory.hpp:74] Creating layer inception_4c/double_3x3_reduce
I1107 08:36:03.889109  5893 net.cpp:94] Creating Layer inception_4c/double_3x3_reduce
I1107 08:36:03.889116  5893 net.cpp:458] inception_4c/double_3x3_reduce <- inception_4b/output_inception_4b/output_0_split_2
I1107 08:36:03.889122  5893 net.cpp:120] 0
I1107 08:36:03.889124  5893 net.cpp:126] This layer is inheriting previous layer's sync mode: 1
I1107 08:36:03.889130  5893 net.cpp:414] inception_4c/double_3x3_reduce -> inception_4c/double_3x3_reduce
I1107 08:36:03.889139  5893 net.cpp:159] Setting up inception_4c/double_3x3_reduce
I1107 08:36:03.890494  5893 cudnn_conv_layer.cpp:193] Reallocating workspace storage: 10080
I1107 08:36:03.890511  5893 net.cpp:166] Top shape: 16 128 14 14 (401408)
I1107 08:36:03.890532  5893 layer_factory.hpp:74] Creating layer inception_4c/double_3x3_reduce_bn
I1107 08:36:03.890545  5893 net.cpp:94] Creating Layer inception_4c/double_3x3_reduce_bn
I1107 08:36:03.890563  5893 net.cpp:458] inception_4c/double_3x3_reduce_bn <- inception_4c/double_3x3_reduce
I1107 08:36:03.890570  5893 net.cpp:120] 0
I1107 08:36:03.890573  5893 net.cpp:126] This layer is inheriting previous layer's sync mode: 1
I1107 08:36:03.890580  5893 net.cpp:414] inception_4c/double_3x3_reduce_bn -> inception_4c/double_3x3_reduce_bn
I1107 08:36:03.890588  5893 net.cpp:159] Setting up inception_4c/double_3x3_reduce_bn
I1107 08:36:03.890612  5893 net.cpp:166] Top shape: 16 128 14 14 (401408)
I1107 08:36:03.890622  5893 layer_factory.hpp:74] Creating layer inception_4c/relu_double_3x3_reduce
I1107 08:36:03.890630  5893 net.cpp:94] Creating Layer inception_4c/relu_double_3x3_reduce
I1107 08:36:03.890633  5893 net.cpp:458] inception_4c/relu_double_3x3_reduce <- inception_4c/double_3x3_reduce_bn
I1107 08:36:03.890638  5893 net.cpp:120] 0
I1107 08:36:03.890642  5893 net.cpp:126] This layer is inheriting previous layer's sync mode: 1
I1107 08:36:03.890647  5893 net.cpp:403] inception_4c/relu_double_3x3_reduce -> inception_4c/double_3x3_reduce_bn (in-place)
I1107 08:36:03.890653  5893 net.cpp:159] Setting up inception_4c/relu_double_3x3_reduce
I1107 08:36:03.890836  5893 net.cpp:166] Top shape: 16 128 14 14 (401408)
I1107 08:36:03.890846  5893 layer_factory.hpp:74] Creating layer inception_4c/double_3x3_1
I1107 08:36:03.890857  5893 net.cpp:94] Creating Layer inception_4c/double_3x3_1
I1107 08:36:03.890862  5893 net.cpp:458] inception_4c/double_3x3_1 <- inception_4c/double_3x3_reduce_bn
I1107 08:36:03.890868  5893 net.cpp:120] 0
I1107 08:36:03.890872  5893 net.cpp:126] This layer is inheriting previous layer's sync mode: 1
I1107 08:36:03.890878  5893 net.cpp:414] inception_4c/double_3x3_1 -> inception_4c/double_3x3_1
I1107 08:36:03.890887  5893 net.cpp:159] Setting up inception_4c/double_3x3_1
I1107 08:36:03.892832  5893 cudnn_conv_layer.cpp:193] Reallocating workspace storage: 10080
I1107 08:36:03.892848  5893 net.cpp:166] Top shape: 16 160 14 14 (501760)
I1107 08:36:03.892870  5893 layer_factory.hpp:74] Creating layer inception_4c/double_3x3_1_bn
I1107 08:36:03.892880  5893 net.cpp:94] Creating Layer inception_4c/double_3x3_1_bn
I1107 08:36:03.892886  5893 net.cpp:458] inception_4c/double_3x3_1_bn <- inception_4c/double_3x3_1
I1107 08:36:03.892894  5893 net.cpp:120] 0
I1107 08:36:03.892899  5893 net.cpp:126] This layer is inheriting previous layer's sync mode: 1
I1107 08:36:03.892907  5893 net.cpp:414] inception_4c/double_3x3_1_bn -> inception_4c/double_3x3_1_bn
I1107 08:36:03.892916  5893 net.cpp:159] Setting up inception_4c/double_3x3_1_bn
I1107 08:36:03.892935  5893 net.cpp:166] Top shape: 16 160 14 14 (501760)
I1107 08:36:03.892946  5893 layer_factory.hpp:74] Creating layer inception_4c/relu_double_3x3_1
I1107 08:36:03.892953  5893 net.cpp:94] Creating Layer inception_4c/relu_double_3x3_1
I1107 08:36:03.892958  5893 net.cpp:458] inception_4c/relu_double_3x3_1 <- inception_4c/double_3x3_1_bn
I1107 08:36:03.892964  5893 net.cpp:120] 0
I1107 08:36:03.892968  5893 net.cpp:126] This layer is inheriting previous layer's sync mode: 1
I1107 08:36:03.892973  5893 net.cpp:403] inception_4c/relu_double_3x3_1 -> inception_4c/double_3x3_1_bn (in-place)
I1107 08:36:03.892979  5893 net.cpp:159] Setting up inception_4c/relu_double_3x3_1
I1107 08:36:03.893182  5893 net.cpp:166] Top shape: 16 160 14 14 (501760)
I1107 08:36:03.893193  5893 layer_factory.hpp:74] Creating layer inception_4c/double_3x3_2
I1107 08:36:03.893203  5893 net.cpp:94] Creating Layer inception_4c/double_3x3_2
I1107 08:36:03.893208  5893 net.cpp:458] inception_4c/double_3x3_2 <- inception_4c/double_3x3_1_bn
I1107 08:36:03.893213  5893 net.cpp:120] 0
I1107 08:36:03.893216  5893 net.cpp:126] This layer is inheriting previous layer's sync mode: 1
I1107 08:36:03.893224  5893 net.cpp:414] inception_4c/double_3x3_2 -> inception_4c/double_3x3_2
I1107 08:36:03.893231  5893 net.cpp:159] Setting up inception_4c/double_3x3_2
I1107 08:36:03.895663  5893 cudnn_conv_layer.cpp:193] Reallocating workspace storage: 10080
I1107 08:36:03.895691  5893 net.cpp:166] Top shape: 16 160 14 14 (501760)
I1107 08:36:03.895715  5893 layer_factory.hpp:74] Creating layer inception_4c/double_3x3_2_bn
I1107 08:36:03.895725  5893 net.cpp:94] Creating Layer inception_4c/double_3x3_2_bn
I1107 08:36:03.895731  5893 net.cpp:458] inception_4c/double_3x3_2_bn <- inception_4c/double_3x3_2
I1107 08:36:03.895736  5893 net.cpp:120] 0
I1107 08:36:03.895740  5893 net.cpp:126] This layer is inheriting previous layer's sync mode: 1
I1107 08:36:03.895746  5893 net.cpp:414] inception_4c/double_3x3_2_bn -> inception_4c/double_3x3_2_bn
I1107 08:36:03.895756  5893 net.cpp:159] Setting up inception_4c/double_3x3_2_bn
I1107 08:36:03.895774  5893 net.cpp:166] Top shape: 16 160 14 14 (501760)
I1107 08:36:03.895787  5893 layer_factory.hpp:74] Creating layer inception_4c/relu_double_3x3_2
I1107 08:36:03.895793  5893 net.cpp:94] Creating Layer inception_4c/relu_double_3x3_2
I1107 08:36:03.895797  5893 net.cpp:458] inception_4c/relu_double_3x3_2 <- inception_4c/double_3x3_2_bn
I1107 08:36:03.895802  5893 net.cpp:120] 0
I1107 08:36:03.895805  5893 net.cpp:126] This layer is inheriting previous layer's sync mode: 1
I1107 08:36:03.895810  5893 net.cpp:403] inception_4c/relu_double_3x3_2 -> inception_4c/double_3x3_2_bn (in-place)
I1107 08:36:03.895817  5893 net.cpp:159] Setting up inception_4c/relu_double_3x3_2
I1107 08:36:03.896147  5893 net.cpp:166] Top shape: 16 160 14 14 (501760)
I1107 08:36:03.896159  5893 layer_factory.hpp:74] Creating layer inception_4c/pool
I1107 08:36:03.896180  5893 layer_factory.cpp:55] CUDNN does not support padding or multiple tops. Using Caffe's own pooling layer.
I1107 08:36:03.896188  5893 net.cpp:94] Creating Layer inception_4c/pool
I1107 08:36:03.896193  5893 net.cpp:458] inception_4c/pool <- inception_4b/output_inception_4b/output_0_split_3
I1107 08:36:03.896198  5893 net.cpp:120] 0
I1107 08:36:03.896201  5893 net.cpp:126] This layer is inheriting previous layer's sync mode: 1
I1107 08:36:03.896206  5893 net.cpp:414] inception_4c/pool -> inception_4c/pool
I1107 08:36:03.896214  5893 net.cpp:159] Setting up inception_4c/pool
I1107 08:36:03.896221  5893 net.cpp:166] Top shape: 16 576 14 14 (1806336)
I1107 08:36:03.896225  5893 layer_factory.hpp:74] Creating layer inception_4c/pool_proj
I1107 08:36:03.896234  5893 net.cpp:94] Creating Layer inception_4c/pool_proj
I1107 08:36:03.896239  5893 net.cpp:458] inception_4c/pool_proj <- inception_4c/pool
I1107 08:36:03.896244  5893 net.cpp:120] 0
I1107 08:36:03.896247  5893 net.cpp:126] This layer is inheriting previous layer's sync mode: 1
I1107 08:36:03.896252  5893 net.cpp:414] inception_4c/pool_proj -> inception_4c/pool_proj
I1107 08:36:03.896260  5893 net.cpp:159] Setting up inception_4c/pool_proj
I1107 08:36:03.897585  5893 cudnn_conv_layer.cpp:193] Reallocating workspace storage: 10080
I1107 08:36:03.897615  5893 net.cpp:166] Top shape: 16 128 14 14 (401408)
I1107 08:36:03.897625  5893 layer_factory.hpp:74] Creating layer inception_4c/pool_proj_bn
I1107 08:36:03.897635  5893 net.cpp:94] Creating Layer inception_4c/pool_proj_bn
I1107 08:36:03.897641  5893 net.cpp:458] inception_4c/pool_proj_bn <- inception_4c/pool_proj
I1107 08:36:03.897647  5893 net.cpp:120] 0
I1107 08:36:03.897652  5893 net.cpp:126] This layer is inheriting previous layer's sync mode: 1
I1107 08:36:03.897660  5893 net.cpp:414] inception_4c/pool_proj_bn -> inception_4c/pool_proj_bn
I1107 08:36:03.897667  5893 net.cpp:159] Setting up inception_4c/pool_proj_bn
I1107 08:36:03.897689  5893 net.cpp:166] Top shape: 16 128 14 14 (401408)
I1107 08:36:03.897729  5893 layer_factory.hpp:74] Creating layer inception_4c/relu_pool_proj
I1107 08:36:03.897739  5893 net.cpp:94] Creating Layer inception_4c/relu_pool_proj
I1107 08:36:03.897744  5893 net.cpp:458] inception_4c/relu_pool_proj <- inception_4c/pool_proj_bn
I1107 08:36:03.897748  5893 net.cpp:120] 0
I1107 08:36:03.897753  5893 net.cpp:126] This layer is inheriting previous layer's sync mode: 1
I1107 08:36:03.897758  5893 net.cpp:403] inception_4c/relu_pool_proj -> inception_4c/pool_proj_bn (in-place)
I1107 08:36:03.897776  5893 net.cpp:159] Setting up inception_4c/relu_pool_proj
I1107 08:36:03.897986  5893 net.cpp:166] Top shape: 16 128 14 14 (401408)
I1107 08:36:03.897997  5893 layer_factory.hpp:74] Creating layer inception_4c/output
I1107 08:36:03.898005  5893 net.cpp:94] Creating Layer inception_4c/output
I1107 08:36:03.898011  5893 net.cpp:458] inception_4c/output <- inception_4c/1x1_bn
I1107 08:36:03.898017  5893 net.cpp:458] inception_4c/output <- inception_4c/3x3_bn
I1107 08:36:03.898025  5893 net.cpp:458] inception_4c/output <- inception_4c/double_3x3_2_bn
I1107 08:36:03.898030  5893 net.cpp:458] inception_4c/output <- inception_4c/pool_proj_bn
I1107 08:36:03.898035  5893 net.cpp:120] 0
I1107 08:36:03.898038  5893 net.cpp:126] This layer is inheriting previous layer's sync mode: 1
I1107 08:36:03.898046  5893 net.cpp:414] inception_4c/output -> inception_4c/output
I1107 08:36:03.898052  5893 net.cpp:159] Setting up inception_4c/output
I1107 08:36:03.898061  5893 net.cpp:166] Top shape: 16 608 14 14 (1906688)
I1107 08:36:03.898064  5893 layer_factory.hpp:74] Creating layer inception_4c/output_inception_4c/output_0_split
I1107 08:36:03.898072  5893 net.cpp:94] Creating Layer inception_4c/output_inception_4c/output_0_split
I1107 08:36:03.898077  5893 net.cpp:458] inception_4c/output_inception_4c/output_0_split <- inception_4c/output
I1107 08:36:03.898082  5893 net.cpp:120] 0
I1107 08:36:03.898087  5893 net.cpp:126] This layer is inheriting previous layer's sync mode: 1
I1107 08:36:03.898092  5893 net.cpp:414] inception_4c/output_inception_4c/output_0_split -> inception_4c/output_inception_4c/output_0_split_0
I1107 08:36:03.898099  5893 net.cpp:414] inception_4c/output_inception_4c/output_0_split -> inception_4c/output_inception_4c/output_0_split_1
I1107 08:36:03.898108  5893 net.cpp:414] inception_4c/output_inception_4c/output_0_split -> inception_4c/output_inception_4c/output_0_split_2
I1107 08:36:03.898114  5893 net.cpp:414] inception_4c/output_inception_4c/output_0_split -> inception_4c/output_inception_4c/output_0_split_3
I1107 08:36:03.898136  5893 net.cpp:159] Setting up inception_4c/output_inception_4c/output_0_split
I1107 08:36:03.898145  5893 net.cpp:166] Top shape: 16 608 14 14 (1906688)
I1107 08:36:03.898150  5893 net.cpp:166] Top shape: 16 608 14 14 (1906688)
I1107 08:36:03.898154  5893 net.cpp:166] Top shape: 16 608 14 14 (1906688)
I1107 08:36:03.898160  5893 net.cpp:166] Top shape: 16 608 14 14 (1906688)
I1107 08:36:03.898164  5893 layer_factory.hpp:74] Creating layer inception_4d/1x1
I1107 08:36:03.898174  5893 net.cpp:94] Creating Layer inception_4d/1x1
I1107 08:36:03.898177  5893 net.cpp:458] inception_4d/1x1 <- inception_4c/output_inception_4c/output_0_split_0
I1107 08:36:03.898182  5893 net.cpp:120] 0
I1107 08:36:03.898186  5893 net.cpp:126] This layer is inheriting previous layer's sync mode: 1
I1107 08:36:03.898191  5893 net.cpp:414] inception_4d/1x1 -> inception_4d/1x1
I1107 08:36:03.898200  5893 net.cpp:159] Setting up inception_4d/1x1
I1107 08:36:03.899435  5893 cudnn_conv_layer.cpp:193] Reallocating workspace storage: 10080
I1107 08:36:03.899452  5893 net.cpp:166] Top shape: 16 96 14 14 (301056)
I1107 08:36:03.899476  5893 layer_factory.hpp:74] Creating layer inception_4d/1x1_bn
I1107 08:36:03.899487  5893 net.cpp:94] Creating Layer inception_4d/1x1_bn
I1107 08:36:03.899492  5893 net.cpp:458] inception_4d/1x1_bn <- inception_4d/1x1
I1107 08:36:03.899498  5893 net.cpp:120] 0
I1107 08:36:03.899502  5893 net.cpp:126] This layer is inheriting previous layer's sync mode: 1
I1107 08:36:03.899509  5893 net.cpp:414] inception_4d/1x1_bn -> inception_4d/1x1_bn
I1107 08:36:03.899518  5893 net.cpp:159] Setting up inception_4d/1x1_bn
I1107 08:36:03.899538  5893 net.cpp:166] Top shape: 16 96 14 14 (301056)
I1107 08:36:03.899550  5893 layer_factory.hpp:74] Creating layer inception_4d/relu_1x1
I1107 08:36:03.899557  5893 net.cpp:94] Creating Layer inception_4d/relu_1x1
I1107 08:36:03.899561  5893 net.cpp:458] inception_4d/relu_1x1 <- inception_4d/1x1_bn
I1107 08:36:03.899566  5893 net.cpp:120] 0
I1107 08:36:03.899582  5893 net.cpp:126] This layer is inheriting previous layer's sync mode: 1
I1107 08:36:03.899588  5893 net.cpp:403] inception_4d/relu_1x1 -> inception_4d/1x1_bn (in-place)
I1107 08:36:03.899595  5893 net.cpp:159] Setting up inception_4d/relu_1x1
I1107 08:36:03.899794  5893 net.cpp:166] Top shape: 16 96 14 14 (301056)
I1107 08:36:03.899806  5893 layer_factory.hpp:74] Creating layer inception_4d/3x3_reduce
I1107 08:36:03.899814  5893 net.cpp:94] Creating Layer inception_4d/3x3_reduce
I1107 08:36:03.899819  5893 net.cpp:458] inception_4d/3x3_reduce <- inception_4c/output_inception_4c/output_0_split_1
I1107 08:36:03.899824  5893 net.cpp:120] 0
I1107 08:36:03.899828  5893 net.cpp:126] This layer is inheriting previous layer's sync mode: 1
I1107 08:36:03.899835  5893 net.cpp:414] inception_4d/3x3_reduce -> inception_4d/3x3_reduce
I1107 08:36:03.899843  5893 net.cpp:159] Setting up inception_4d/3x3_reduce
I1107 08:36:03.901176  5893 cudnn_conv_layer.cpp:193] Reallocating workspace storage: 10080
I1107 08:36:03.901193  5893 net.cpp:166] Top shape: 16 128 14 14 (401408)
I1107 08:36:03.901216  5893 layer_factory.hpp:74] Creating layer inception_4d/3x3_reduce_bn
I1107 08:36:03.901228  5893 net.cpp:94] Creating Layer inception_4d/3x3_reduce_bn
I1107 08:36:03.901233  5893 net.cpp:458] inception_4d/3x3_reduce_bn <- inception_4d/3x3_reduce
I1107 08:36:03.901239  5893 net.cpp:120] 0
I1107 08:36:03.901243  5893 net.cpp:126] This layer is inheriting previous layer's sync mode: 1
I1107 08:36:03.901250  5893 net.cpp:414] inception_4d/3x3_reduce_bn -> inception_4d/3x3_reduce_bn
I1107 08:36:03.901259  5893 net.cpp:159] Setting up inception_4d/3x3_reduce_bn
I1107 08:36:03.901278  5893 net.cpp:166] Top shape: 16 128 14 14 (401408)
I1107 08:36:03.901289  5893 layer_factory.hpp:74] Creating layer inception_4d/relu_3x3_reduce
I1107 08:36:03.901296  5893 net.cpp:94] Creating Layer inception_4d/relu_3x3_reduce
I1107 08:36:03.901301  5893 net.cpp:458] inception_4d/relu_3x3_reduce <- inception_4d/3x3_reduce_bn
I1107 08:36:03.901306  5893 net.cpp:120] 0
I1107 08:36:03.901309  5893 net.cpp:126] This layer is inheriting previous layer's sync mode: 1
I1107 08:36:03.901314  5893 net.cpp:403] inception_4d/relu_3x3_reduce -> inception_4d/3x3_reduce_bn (in-place)
I1107 08:36:03.901320  5893 net.cpp:159] Setting up inception_4d/relu_3x3_reduce
I1107 08:36:03.901661  5893 net.cpp:166] Top shape: 16 128 14 14 (401408)
I1107 08:36:03.901675  5893 layer_factory.hpp:74] Creating layer inception_4d/3x3
I1107 08:36:03.901700  5893 net.cpp:94] Creating Layer inception_4d/3x3
I1107 08:36:03.901705  5893 net.cpp:458] inception_4d/3x3 <- inception_4d/3x3_reduce_bn
I1107 08:36:03.901710  5893 net.cpp:120] 0
I1107 08:36:03.901715  5893 net.cpp:126] This layer is inheriting previous layer's sync mode: 1
I1107 08:36:03.901721  5893 net.cpp:414] inception_4d/3x3 -> inception_4d/3x3
I1107 08:36:03.901729  5893 net.cpp:159] Setting up inception_4d/3x3
I1107 08:36:03.903949  5893 cudnn_conv_layer.cpp:193] Reallocating workspace storage: 10080
I1107 08:36:03.903965  5893 net.cpp:166] Top shape: 16 192 14 14 (602112)
I1107 08:36:03.903987  5893 layer_factory.hpp:74] Creating layer inception_4d/3x3_bn
I1107 08:36:03.904000  5893 net.cpp:94] Creating Layer inception_4d/3x3_bn
I1107 08:36:03.904006  5893 net.cpp:458] inception_4d/3x3_bn <- inception_4d/3x3
I1107 08:36:03.904012  5893 net.cpp:120] 0
I1107 08:36:03.904016  5893 net.cpp:126] This layer is inheriting previous layer's sync mode: 1
I1107 08:36:03.904023  5893 net.cpp:414] inception_4d/3x3_bn -> inception_4d/3x3_bn
I1107 08:36:03.904032  5893 net.cpp:159] Setting up inception_4d/3x3_bn
I1107 08:36:03.904053  5893 net.cpp:166] Top shape: 16 192 14 14 (602112)
I1107 08:36:03.904064  5893 layer_factory.hpp:74] Creating layer inception_4d/relu_3x3
I1107 08:36:03.904072  5893 net.cpp:94] Creating Layer inception_4d/relu_3x3
I1107 08:36:03.904075  5893 net.cpp:458] inception_4d/relu_3x3 <- inception_4d/3x3_bn
I1107 08:36:03.904080  5893 net.cpp:120] 0
I1107 08:36:03.904083  5893 net.cpp:126] This layer is inheriting previous layer's sync mode: 1
I1107 08:36:03.904103  5893 net.cpp:403] inception_4d/relu_3x3 -> inception_4d/3x3_bn (in-place)
I1107 08:36:03.904110  5893 net.cpp:159] Setting up inception_4d/relu_3x3
I1107 08:36:03.904314  5893 net.cpp:166] Top shape: 16 192 14 14 (602112)
I1107 08:36:03.904325  5893 layer_factory.hpp:74] Creating layer inception_4d/double_3x3_reduce
I1107 08:36:03.904335  5893 net.cpp:94] Creating Layer inception_4d/double_3x3_reduce
I1107 08:36:03.904340  5893 net.cpp:458] inception_4d/double_3x3_reduce <- inception_4c/output_inception_4c/output_0_split_2
I1107 08:36:03.904345  5893 net.cpp:120] 0
I1107 08:36:03.904350  5893 net.cpp:126] This layer is inheriting previous layer's sync mode: 1
I1107 08:36:03.904356  5893 net.cpp:414] inception_4d/double_3x3_reduce -> inception_4d/double_3x3_reduce
I1107 08:36:03.904364  5893 net.cpp:159] Setting up inception_4d/double_3x3_reduce
I1107 08:36:03.905832  5893 cudnn_conv_layer.cpp:193] Reallocating workspace storage: 10080
I1107 08:36:03.905848  5893 net.cpp:166] Top shape: 16 160 14 14 (501760)
I1107 08:36:03.905870  5893 layer_factory.hpp:74] Creating layer inception_4d/double_3x3_reduce_bn
I1107 08:36:03.905882  5893 net.cpp:94] Creating Layer inception_4d/double_3x3_reduce_bn
I1107 08:36:03.905887  5893 net.cpp:458] inception_4d/double_3x3_reduce_bn <- inception_4d/double_3x3_reduce
I1107 08:36:03.905894  5893 net.cpp:120] 0
I1107 08:36:03.905899  5893 net.cpp:126] This layer is inheriting previous layer's sync mode: 1
I1107 08:36:03.905905  5893 net.cpp:414] inception_4d/double_3x3_reduce_bn -> inception_4d/double_3x3_reduce_bn
I1107 08:36:03.905913  5893 net.cpp:159] Setting up inception_4d/double_3x3_reduce_bn
I1107 08:36:03.905933  5893 net.cpp:166] Top shape: 16 160 14 14 (501760)
I1107 08:36:03.905944  5893 layer_factory.hpp:74] Creating layer inception_4d/relu_double_3x3_reduce
I1107 08:36:03.905951  5893 net.cpp:94] Creating Layer inception_4d/relu_double_3x3_reduce
I1107 08:36:03.905956  5893 net.cpp:458] inception_4d/relu_double_3x3_reduce <- inception_4d/double_3x3_reduce_bn
I1107 08:36:03.905961  5893 net.cpp:120] 0
I1107 08:36:03.905964  5893 net.cpp:126] This layer is inheriting previous layer's sync mode: 1
I1107 08:36:03.905968  5893 net.cpp:403] inception_4d/relu_double_3x3_reduce -> inception_4d/double_3x3_reduce_bn (in-place)
I1107 08:36:03.905974  5893 net.cpp:159] Setting up inception_4d/relu_double_3x3_reduce
I1107 08:36:03.906172  5893 net.cpp:166] Top shape: 16 160 14 14 (501760)
I1107 08:36:03.906183  5893 layer_factory.hpp:74] Creating layer inception_4d/double_3x3_1
I1107 08:36:03.906193  5893 net.cpp:94] Creating Layer inception_4d/double_3x3_1
I1107 08:36:03.906198  5893 net.cpp:458] inception_4d/double_3x3_1 <- inception_4d/double_3x3_reduce_bn
I1107 08:36:03.906203  5893 net.cpp:120] 0
I1107 08:36:03.906208  5893 net.cpp:126] This layer is inheriting previous layer's sync mode: 1
I1107 08:36:03.906213  5893 net.cpp:414] inception_4d/double_3x3_1 -> inception_4d/double_3x3_1
I1107 08:36:03.906222  5893 net.cpp:159] Setting up inception_4d/double_3x3_1
I1107 08:36:03.908885  5893 cudnn_conv_layer.cpp:193] Reallocating workspace storage: 10080
I1107 08:36:03.908913  5893 net.cpp:166] Top shape: 16 192 14 14 (602112)
I1107 08:36:03.908926  5893 layer_factory.hpp:74] Creating layer inception_4d/double_3x3_1_bn
I1107 08:36:03.908936  5893 net.cpp:94] Creating Layer inception_4d/double_3x3_1_bn
I1107 08:36:03.908942  5893 net.cpp:458] inception_4d/double_3x3_1_bn <- inception_4d/double_3x3_1
I1107 08:36:03.908948  5893 net.cpp:120] 0
I1107 08:36:03.908952  5893 net.cpp:126] This layer is inheriting previous layer's sync mode: 1
I1107 08:36:03.908959  5893 net.cpp:414] inception_4d/double_3x3_1_bn -> inception_4d/double_3x3_1_bn
I1107 08:36:03.908968  5893 net.cpp:159] Setting up inception_4d/double_3x3_1_bn
I1107 08:36:03.908988  5893 net.cpp:166] Top shape: 16 192 14 14 (602112)
I1107 08:36:03.908999  5893 layer_factory.hpp:74] Creating layer inception_4d/relu_double_3x3_1
I1107 08:36:03.909006  5893 net.cpp:94] Creating Layer inception_4d/relu_double_3x3_1
I1107 08:36:03.909025  5893 net.cpp:458] inception_4d/relu_double_3x3_1 <- inception_4d/double_3x3_1_bn
I1107 08:36:03.909031  5893 net.cpp:120] 0
…
I1107 08:36:07.206725  5893 net.cpp:458] inception_4e/3x3_reduce <- inception_4d/output_inception_4d/output_0_split_0
I1107 08:36:07.206732  5893 net.cpp:120] 0
I1107 08:36:07.206735  5893 net.cpp:126] This layer is inheriting previous layer's sync mode: 1
I1107 08:36:07.206742  5893 net.cpp:414] inception_4e/3x3_reduce -> inception_4e/3x3_reduce
I1107 08:36:07.206749  5893 net.cpp:159] Setting up inception_4e/3x3_reduce
I1107 08:36:07.207981  5893 cudnn_conv_layer.cpp:193] Reallocating workspace storage: 3360
I1107 08:36:07.207998  5893 net.cpp:166] Top shape: 16 128 14 14 (401408)
I1107 08:36:07.208019  5893 layer_factory.hpp:74] Creating layer inception_4e/3x3_reduce_bn
I1107 08:36:07.208027  5893 net.cpp:94] Creating Layer inception_4e/3x3_reduce_bn
I1107 08:36:07.208032  5893 net.cpp:458] inception_4e/3x3_reduce_bn <- inception_4e/3x3_reduce
I1107 08:36:07.208037  5893 net.cpp:120] 0
I1107 08:36:07.208041  5893 net.cpp:126] This layer is inheriting previous layer's sync mode: 1
I1107 08:36:07.208065  5893 net.cpp:414] inception_4e/3x3_reduce_bn -> inception_4e/3x3_reduce_bn
I1107 08:36:07.208076  5893 net.cpp:159] Setting up inception_4e/3x3_reduce_bn
I1107 08:36:07.208092  5893 net.cpp:166] Top shape: 16 128 14 14 (401408)
I1107 08:36:07.208103  5893 layer_factory.hpp:74] Creating layer inception_4e/relu_3x3_reduce
I1107 08:36:07.208109  5893 net.cpp:94] Creating Layer inception_4e/relu_3x3_reduce
I1107 08:36:07.208113  5893 net.cpp:458] inception_4e/relu_3x3_reduce <- inception_4e/3x3_reduce_bn
I1107 08:36:07.208118  5893 net.cpp:120] 0
I1107 08:36:07.208122  5893 net.cpp:126] This layer is inheriting previous layer's sync mode: 1
I1107 08:36:07.208125  5893 net.cpp:403] inception_4e/relu_3x3_reduce -> inception_4e/3x3_reduce_bn (in-place)
I1107 08:36:07.208132  5893 net.cpp:159] Setting up inception_4e/relu_3x3_reduce
I1107 08:36:07.208494  5893 net.cpp:166] Top shape: 16 128 14 14 (401408)
I1107 08:36:07.208505  5893 layer_factory.hpp:74] Creating layer inception_4e/3x3
I1107 08:36:07.208528  5893 net.cpp:94] Creating Layer inception_4e/3x3
I1107 08:36:07.208534  5893 net.cpp:458] inception_4e/3x3 <- inception_4e/3x3_reduce_bn
I1107 08:36:07.208537  5893 net.cpp:120] 0
I1107 08:36:07.208541  5893 net.cpp:126] This layer is inheriting previous layer's sync mode: 1
I1107 08:36:07.208547  5893 net.cpp:414] inception_4e/3x3 -> inception_4e/3x3
I1107 08:36:07.208555  5893 net.cpp:159] Setting up inception_4e/3x3
I1107 08:36:07.210839  5893 cudnn_conv_layer.cpp:193] Reallocating workspace storage: 3360
I1107 08:36:07.210867  5893 net.cpp:166] Top shape: 16 192 7 7 (150528)
I1107 08:36:07.210877  5893 layer_factory.hpp:74] Creating layer inception_4e/3x3_bn
I1107 08:36:07.210887  5893 net.cpp:94] Creating Layer inception_4e/3x3_bn
I1107 08:36:07.210892  5893 net.cpp:458] inception_4e/3x3_bn <- inception_4e/3x3
I1107 08:36:07.210898  5893 net.cpp:120] 0
I1107 08:36:07.210901  5893 net.cpp:126] This layer is inheriting previous layer's sync mode: 1
I1107 08:36:07.210908  5893 net.cpp:414] inception_4e/3x3_bn -> inception_4e/3x3_bn
I1107 08:36:07.210916  5893 net.cpp:159] Setting up inception_4e/3x3_bn
I1107 08:36:07.210934  5893 net.cpp:166] Top shape: 16 192 7 7 (150528)
I1107 08:36:07.210944  5893 layer_factory.hpp:74] Creating layer inception_4e/relu_3x3
I1107 08:36:07.210950  5893 net.cpp:94] Creating Layer inception_4e/relu_3x3
I1107 08:36:07.210955  5893 net.cpp:458] inception_4e/relu_3x3 <- inception_4e/3x3_bn
I1107 08:36:07.210960  5893 net.cpp:120] 0
I1107 08:36:07.210964  5893 net.cpp:126] This layer is inheriting previous layer's sync mode: 1
I1107 08:36:07.210969  5893 net.cpp:403] inception_4e/relu_3x3 -> inception_4e/3x3_bn (in-place)
I1107 08:36:07.210975  5893 net.cpp:159] Setting up inception_4e/relu_3x3
I1107 08:36:07.211185  5893 net.cpp:166] Top shape: 16 192 7 7 (150528)
I1107 08:36:07.211194  5893 layer_factory.hpp:74] Creating layer inception_4e/double_3x3_reduce
I1107 08:36:07.211205  5893 net.cpp:94] Creating Layer inception_4e/double_3x3_reduce
I1107 08:36:07.211210  5893 net.cpp:458] inception_4e/double_3x3_reduce <- inception_4d/output_inception_4d/output_0_split_1
I1107 08:36:07.211215  5893 net.cpp:120] 0
I1107 08:36:07.211218  5893 net.cpp:126] This layer is inheriting previous layer's sync mode: 1
I1107 08:36:07.211225  5893 net.cpp:414] inception_4e/double_3x3_reduce -> inception_4e/double_3x3_reduce
I1107 08:36:07.211233  5893 net.cpp:159] Setting up inception_4e/double_3x3_reduce
I1107 08:36:07.212829  5893 cudnn_conv_layer.cpp:193] Reallocating workspace storage: 3360
I1107 08:36:07.212857  5893 net.cpp:166] Top shape: 16 192 14 14 (602112)
I1107 08:36:07.212867  5893 layer_factory.hpp:74] Creating layer inception_4e/double_3x3_reduce_bn
I1107 08:36:07.212877  5893 net.cpp:94] Creating Layer inception_4e/double_3x3_reduce_bn
I1107 08:36:07.212882  5893 net.cpp:458] inception_4e/double_3x3_reduce_bn <- inception_4e/double_3x3_reduce
I1107 08:36:07.212888  5893 net.cpp:120] 0
I1107 08:36:07.212893  5893 net.cpp:126] This layer is inheriting previous layer's sync mode: 1
I1107 08:36:07.212914  5893 net.cpp:414] inception_4e/double_3x3_reduce_bn -> inception_4e/double_3x3_reduce_bn
I1107 08:36:07.212924  5893 net.cpp:159] Setting up inception_4e/double_3x3_reduce_bn
I1107 08:36:07.212942  5893 net.cpp:166] Top shape: 16 192 14 14 (602112)
I1107 08:36:07.212952  5893 layer_factory.hpp:74] Creating layer inception_4e/relu_double_3x3_reduce
I1107 08:36:07.212960  5893 net.cpp:94] Creating Layer inception_4e/relu_double_3x3_reduce
I1107 08:36:07.212963  5893 net.cpp:458] inception_4e/relu_double_3x3_reduce <- inception_4e/double_3x3_reduce_bn
I1107 08:36:07.212968  5893 net.cpp:120] 0
I1107 08:36:07.212971  5893 net.cpp:126] This layer is inheriting previous layer's sync mode: 1
I1107 08:36:07.212976  5893 net.cpp:403] inception_4e/relu_double_3x3_reduce -> inception_4e/double_3x3_reduce_bn (in-place)
I1107 08:36:07.212982  5893 net.cpp:159] Setting up inception_4e/relu_double_3x3_reduce
I1107 08:36:07.213352  5893 net.cpp:166] Top shape: 16 192 14 14 (602112)
I1107 08:36:07.213364  5893 layer_factory.hpp:74] Creating layer inception_4e/double_3x3_1
I1107 08:36:07.213388  5893 net.cpp:94] Creating Layer inception_4e/double_3x3_1
I1107 08:36:07.213393  5893 net.cpp:458] inception_4e/double_3x3_1 <- inception_4e/double_3x3_reduce_bn
I1107 08:36:07.213399  5893 net.cpp:120] 0
I1107 08:36:07.213403  5893 net.cpp:126] This layer is inheriting previous layer's sync mode: 1
I1107 08:36:07.213410  5893 net.cpp:414] inception_4e/double_3x3_1 -> inception_4e/double_3x3_1
I1107 08:36:07.213418  5893 net.cpp:159] Setting up inception_4e/double_3x3_1
I1107 08:36:07.216810  5893 cudnn_conv_layer.cpp:193] Reallocating workspace storage: 3360
I1107 08:36:07.216838  5893 net.cpp:166] Top shape: 16 256 14 14 (802816)
I1107 08:36:07.216848  5893 layer_factory.hpp:74] Creating layer inception_4e/double_3x3_1_bn
I1107 08:36:07.216858  5893 net.cpp:94] Creating Layer inception_4e/double_3x3_1_bn
I1107 08:36:07.216864  5893 net.cpp:458] inception_4e/double_3x3_1_bn <- inception_4e/double_3x3_1
I1107 08:36:07.216869  5893 net.cpp:120] 0
I1107 08:36:07.216873  5893 net.cpp:126] This layer is inheriting previous layer's sync mode: 1
I1107 08:36:07.216881  5893 net.cpp:414] inception_4e/double_3x3_1_bn -> inception_4e/double_3x3_1_bn
I1107 08:36:07.216888  5893 net.cpp:159] Setting up inception_4e/double_3x3_1_bn
I1107 08:36:07.216908  5893 net.cpp:166] Top shape: 16 256 14 14 (802816)
I1107 08:36:07.216918  5893 layer_factory.hpp:74] Creating layer inception_4e/relu_double_3x3_1
I1107 08:36:07.216925  5893 net.cpp:94] Creating Layer inception_4e/relu_double_3x3_1
I1107 08:36:07.216929  5893 net.cpp:458] inception_4e/relu_double_3x3_1 <- inception_4e/double_3x3_1_bn
I1107 08:36:07.216934  5893 net.cpp:120] 0
I1107 08:36:07.216938  5893 net.cpp:126] This layer is inheriting previous layer's sync mode: 1
I1107 08:36:07.216943  5893 net.cpp:403] inception_4e/relu_double_3x3_1 -> inception_4e/double_3x3_1_bn (in-place)
I1107 08:36:07.216948  5893 net.cpp:159] Setting up inception_4e/relu_double_3x3_1
I1107 08:36:07.217358  5893 net.cpp:166] Top shape: 16 256 14 14 (802816)
I1107 08:36:07.217370  5893 layer_factory.hpp:74] Creating layer inception_4e/double_3x3_2
I1107 08:36:07.217393  5893 net.cpp:94] Creating Layer inception_4e/double_3x3_2
I1107 08:36:07.217398  5893 net.cpp:458] inception_4e/double_3x3_2 <- inception_4e/double_3x3_1_bn
I1107 08:36:07.217403  5893 net.cpp:120] 0
I1107 08:36:07.217406  5893 net.cpp:126] This layer is inheriting previous layer's sync mode: 1
I1107 08:36:07.217412  5893 net.cpp:414] inception_4e/double_3x3_2 -> inception_4e/double_3x3_2
I1107 08:36:07.217422  5893 net.cpp:159] Setting up inception_4e/double_3x3_2
I1107 08:36:07.221773  5893 cudnn_conv_layer.cpp:193] Reallocating workspace storage: 3360
I1107 08:36:07.221789  5893 net.cpp:166] Top shape: 16 256 7 7 (200704)
I1107 08:36:07.221812  5893 layer_factory.hpp:74] Creating layer inception_4e/double_3x3_2_bn
I1107 08:36:07.221820  5893 net.cpp:94] Creating Layer inception_4e/double_3x3_2_bn
I1107 08:36:07.221838  5893 net.cpp:458] inception_4e/double_3x3_2_bn <- inception_4e/double_3x3_2
I1107 08:36:07.221845  5893 net.cpp:120] 0
I1107 08:36:07.221848  5893 net.cpp:126] This layer is inheriting previous layer's sync mode: 1
I1107 08:36:07.221854  5893 net.cpp:414] inception_4e/double_3x3_2_bn -> inception_4e/double_3x3_2_bn
I1107 08:36:07.221863  5893 net.cpp:159] Setting up inception_4e/double_3x3_2_bn
I1107 08:36:07.221881  5893 net.cpp:166] Top shape: 16 256 7 7 (200704)
I1107 08:36:07.221891  5893 layer_factory.hpp:74] Creating layer inception_4e/relu_double_3x3_2
I1107 08:36:07.221897  5893 net.cpp:94] Creating Layer inception_4e/relu_double_3x3_2
I1107 08:36:07.221901  5893 net.cpp:458] inception_4e/relu_double_3x3_2 <- inception_4e/double_3x3_2_bn
I1107 08:36:07.221906  5893 net.cpp:120] 0
I1107 08:36:07.221910  5893 net.cpp:126] This layer is inheriting previous layer's sync mode: 1
I1107 08:36:07.221915  5893 net.cpp:403] inception_4e/relu_double_3x3_2 -> inception_4e/double_3x3_2_bn (in-place)
I1107 08:36:07.221920  5893 net.cpp:159] Setting up inception_4e/relu_double_3x3_2
I1107 08:36:07.222127  5893 net.cpp:166] Top shape: 16 256 7 7 (200704)
I1107 08:36:07.222137  5893 layer_factory.hpp:74] Creating layer inception_4e/pool
I1107 08:36:07.222146  5893 net.cpp:94] Creating Layer inception_4e/pool
I1107 08:36:07.222151  5893 net.cpp:458] inception_4e/pool <- inception_4d/output_inception_4d/output_0_split_2
I1107 08:36:07.222157  5893 net.cpp:120] 0
I1107 08:36:07.222162  5893 net.cpp:126] This layer is inheriting previous layer's sync mode: 1
I1107 08:36:07.222167  5893 net.cpp:414] inception_4e/pool -> inception_4e/pool
I1107 08:36:07.222174  5893 net.cpp:159] Setting up inception_4e/pool
I1107 08:36:07.222548  5893 net.cpp:166] Top shape: 16 608 7 7 (476672)
I1107 08:36:07.222559  5893 layer_factory.hpp:74] Creating layer inception_4e/output
I1107 08:36:07.222580  5893 net.cpp:94] Creating Layer inception_4e/output
I1107 08:36:07.222586  5893 net.cpp:458] inception_4e/output <- inception_4e/3x3_bn
I1107 08:36:07.222594  5893 net.cpp:458] inception_4e/output <- inception_4e/double_3x3_2_bn
I1107 08:36:07.222615  5893 net.cpp:458] inception_4e/output <- inception_4e/pool
I1107 08:36:07.222622  5893 net.cpp:120] 0
I1107 08:36:07.222640  5893 net.cpp:126] This layer is inheriting previous layer's sync mode: 1
I1107 08:36:07.222645  5893 net.cpp:414] inception_4e/output -> inception_4e/output
I1107 08:36:07.222652  5893 net.cpp:159] Setting up inception_4e/output
I1107 08:36:07.222661  5893 net.cpp:166] Top shape: 16 1056 7 7 (827904)
I1107 08:36:07.222666  5893 layer_factory.hpp:74] Creating layer inception_4e/output_inception_4e/output_0_split
I1107 08:36:07.222671  5893 net.cpp:94] Creating Layer inception_4e/output_inception_4e/output_0_split
I1107 08:36:07.222676  5893 net.cpp:458] inception_4e/output_inception_4e/output_0_split <- inception_4e/output
I1107 08:36:07.222681  5893 net.cpp:120] 0
I1107 08:36:07.222686  5893 net.cpp:126] This layer is inheriting previous layer's sync mode: 1
I1107 08:36:07.222690  5893 net.cpp:414] inception_4e/output_inception_4e/output_0_split -> inception_4e/output_inception_4e/output_0_split_0
I1107 08:36:07.222697  5893 net.cpp:414] inception_4e/output_inception_4e/output_0_split -> inception_4e/output_inception_4e/output_0_split_1
I1107 08:36:07.222705  5893 net.cpp:414] inception_4e/output_inception_4e/output_0_split -> inception_4e/output_inception_4e/output_0_split_2
I1107 08:36:07.222713  5893 net.cpp:414] inception_4e/output_inception_4e/output_0_split -> inception_4e/output_inception_4e/output_0_split_3
I1107 08:36:07.222718  5893 net.cpp:159] Setting up inception_4e/output_inception_4e/output_0_split
I1107 08:36:07.222725  5893 net.cpp:166] Top shape: 16 1056 7 7 (827904)
I1107 08:36:07.222730  5893 net.cpp:166] Top shape: 16 1056 7 7 (827904)
I1107 08:36:07.222748  5893 net.cpp:166] Top shape: 16 1056 7 7 (827904)
I1107 08:36:07.222754  5893 net.cpp:166] Top shape: 16 1056 7 7 (827904)
I1107 08:36:07.222757  5893 layer_factory.hpp:74] Creating layer inception_5a/1x1
I1107 08:36:07.222782  5893 net.cpp:94] Creating Layer inception_5a/1x1
I1107 08:36:07.222789  5893 net.cpp:458] inception_5a/1x1 <- inception_4e/output_inception_4e/output_0_split_0
I1107 08:36:07.222793  5893 net.cpp:120] 0
I1107 08:36:07.222798  5893 net.cpp:126] This layer is inheriting previous layer's sync mode: 1
I1107 08:36:07.222805  5893 net.cpp:414] inception_5a/1x1 -> inception_5a/1x1
I1107 08:36:07.222816  5893 net.cpp:159] Setting up inception_5a/1x1
I1107 08:36:07.226039  5893 cudnn_conv_layer.cpp:193] Reallocating workspace storage: 3311616
I1107 08:36:07.226068  5893 net.cpp:166] Top shape: 16 352 7 7 (275968)
I1107 08:36:07.226078  5893 layer_factory.hpp:74] Creating layer inception_5a/1x1_bn
I1107 08:36:07.226088  5893 net.cpp:94] Creating Layer inception_5a/1x1_bn
I1107 08:36:07.226092  5893 net.cpp:458] inception_5a/1x1_bn <- inception_5a/1x1
I1107 08:36:07.226097  5893 net.cpp:120] 0
I1107 08:36:07.226100  5893 net.cpp:126] This layer is inheriting previous layer's sync mode: 1
I1107 08:36:07.226106  5893 net.cpp:414] inception_5a/1x1_bn -> inception_5a/1x1_bn
I1107 08:36:07.226114  5893 net.cpp:159] Setting up inception_5a/1x1_bn
I1107 08:36:07.226141  5893 net.cpp:166] Top shape: 16 352 7 7 (275968)
I1107 08:36:07.226151  5893 layer_factory.hpp:74] Creating layer inception_5a/relu_1x1
I1107 08:36:07.226171  5893 net.cpp:94] Creating Layer inception_5a/relu_1x1
I1107 08:36:07.226176  5893 net.cpp:458] inception_5a/relu_1x1 <- inception_5a/1x1_bn
I1107 08:36:07.226181  5893 net.cpp:120] 0
I1107 08:36:07.226184  5893 net.cpp:126] This layer is inheriting previous layer's sync mode: 1
I1107 08:36:07.226189  5893 net.cpp:403] inception_5a/relu_1x1 -> inception_5a/1x1_bn (in-place)
I1107 08:36:07.226196  5893 net.cpp:159] Setting up inception_5a/relu_1x1
I1107 08:36:07.226416  5893 net.cpp:166] Top shape: 16 352 7 7 (275968)
I1107 08:36:07.226428  5893 layer_factory.hpp:74] Creating layer inception_5a/3x3_reduce
I1107 08:36:07.226436  5893 net.cpp:94] Creating Layer inception_5a/3x3_reduce
I1107 08:36:07.226443  5893 net.cpp:458] inception_5a/3x3_reduce <- inception_4e/output_inception_4e/output_0_split_1
I1107 08:36:07.226449  5893 net.cpp:120] 0
I1107 08:36:07.226452  5893 net.cpp:126] This layer is inheriting previous layer's sync mode: 1
I1107 08:36:07.226459  5893 net.cpp:414] inception_5a/3x3_reduce -> inception_5a/3x3_reduce
I1107 08:36:07.226466  5893 net.cpp:159] Setting up inception_5a/3x3_reduce
I1107 08:36:07.228770  5893 cudnn_conv_layer.cpp:193] Reallocating workspace storage: 3311616
I1107 08:36:07.228798  5893 net.cpp:166] Top shape: 16 192 7 7 (150528)
I1107 08:36:07.228807  5893 layer_factory.hpp:74] Creating layer inception_5a/3x3_reduce_bn
I1107 08:36:07.228817  5893 net.cpp:94] Creating Layer inception_5a/3x3_reduce_bn
I1107 08:36:07.228822  5893 net.cpp:458] inception_5a/3x3_reduce_bn <- inception_5a/3x3_reduce
I1107 08:36:07.228828  5893 net.cpp:120] 0
I1107 08:36:07.228832  5893 net.cpp:126] This layer is inheriting previous layer's sync mode: 1
I1107 08:36:07.228837  5893 net.cpp:414] inception_5a/3x3_reduce_bn -> inception_5a/3x3_reduce_bn
I1107 08:36:07.228847  5893 net.cpp:159] Setting up inception_5a/3x3_reduce_bn
I1107 08:36:07.228864  5893 net.cpp:166] Top shape: 16 192 7 7 (150528)
I1107 08:36:07.228874  5893 layer_factory.hpp:74] Creating layer inception_5a/relu_3x3_reduce
I1107 08:36:07.228881  5893 net.cpp:94] Creating Layer inception_5a/relu_3x3_reduce
I1107 08:36:07.228886  5893 net.cpp:458] inception_5a/relu_3x3_reduce <- inception_5a/3x3_reduce_bn
I1107 08:36:07.228891  5893 net.cpp:120] 0
I1107 08:36:07.228895  5893 net.cpp:126] This layer is inheriting previous layer's sync mode: 1
I1107 08:36:07.228900  5893 net.cpp:403] inception_5a/relu_3x3_reduce -> inception_5a/3x3_reduce_bn (in-place)
I1107 08:36:07.228907  5893 net.cpp:159] Setting up inception_5a/relu_3x3_reduce
I1107 08:36:07.229274  5893 net.cpp:166] Top shape: 16 192 7 7 (150528)
I1107 08:36:07.229287  5893 layer_factory.hpp:74] Creating layer inception_5a/3x3
I1107 08:36:07.229311  5893 net.cpp:94] Creating Layer inception_5a/3x3
I1107 08:36:07.229328  5893 net.cpp:458] inception_5a/3x3 <- inception_5a/3x3_reduce_bn
I1107 08:36:07.229334  5893 net.cpp:120] 0
I1107 08:36:07.229337  5893 net.cpp:126] This layer is inheriting previous layer's sync mode: 1
I1107 08:36:07.229344  5893 net.cpp:414] inception_5a/3x3 -> inception_5a/3x3
I1107 08:36:07.229352  5893 net.cpp:159] Setting up inception_5a/3x3
I1107 08:36:07.233449  5893 cudnn_conv_layer.cpp:193] Reallocating workspace storage: 2596
I1107 08:36:07.233466  5893 net.cpp:166] Top shape: 16 320 7 7 (250880)
I1107 08:36:07.233487  5893 layer_factory.hpp:74] Creating layer inception_5a/3x3_bn
I1107 08:36:07.233497  5893 net.cpp:94] Creating Layer inception_5a/3x3_bn
I1107 08:36:07.233502  5893 net.cpp:458] inception_5a/3x3_bn <- inception_5a/3x3
I1107 08:36:07.233507  5893 net.cpp:120] 0
I1107 08:36:07.233511  5893 net.cpp:126] This layer is inheriting previous layer's sync mode: 1
I1107 08:36:07.233517  5893 net.cpp:414] inception_5a/3x3_bn -> inception_5a/3x3_bn
I1107 08:36:07.233526  5893 net.cpp:159] Setting up inception_5a/3x3_bn
I1107 08:36:07.233546  5893 net.cpp:166] Top shape: 16 320 7 7 (250880)
I1107 08:36:07.233556  5893 layer_factory.hpp:74] Creating layer inception_5a/relu_3x3
I1107 08:36:07.233563  5893 net.cpp:94] Creating Layer inception_5a/relu_3x3
I1107 08:36:07.233567  5893 net.cpp:458] inception_5a/relu_3x3 <- inception_5a/3x3_bn
I1107 08:36:07.233572  5893 net.cpp:120] 0
I1107 08:36:07.233575  5893 net.cpp:126] This layer is inheriting previous layer's sync mode: 1
I1107 08:36:07.233580  5893 net.cpp:403] inception_5a/relu_3x3 -> inception_5a/3x3_bn (in-place)
I1107 08:36:07.233587  5893 net.cpp:159] Setting up inception_5a/relu_3x3
I1107 08:36:07.233966  5893 net.cpp:166] Top shape: 16 320 7 7 (250880)
I1107 08:36:07.233979  5893 layer_factory.hpp:74] Creating layer inception_5a/double_3x3_reduce
I1107 08:36:07.234002  5893 net.cpp:94] Creating Layer inception_5a/double_3x3_reduce
I1107 08:36:07.234007  5893 net.cpp:458] inception_5a/double_3x3_reduce <- inception_4e/output_inception_4e/output_0_split_2
I1107 08:36:07.234014  5893 net.cpp:120] 0
I1107 08:36:07.234017  5893 net.cpp:126] This layer is inheriting previous layer's sync mode: 1
I1107 08:36:07.234025  5893 net.cpp:414] inception_5a/double_3x3_reduce -> inception_5a/double_3x3_reduce
I1107 08:36:07.234033  5893 net.cpp:159] Setting up inception_5a/double_3x3_reduce
I1107 08:36:07.236016  5893 cudnn_conv_layer.cpp:193] Reallocating workspace storage: 2476
I1107 08:36:07.236033  5893 net.cpp:166] Top shape: 16 160 7 7 (125440)
I1107 08:36:07.236055  5893 layer_factory.hpp:74] Creating layer inception_5a/double_3x3_reduce_bn
I1107 08:36:07.236065  5893 net.cpp:94] Creating Layer inception_5a/double_3x3_reduce_bn
I1107 08:36:07.236071  5893 net.cpp:458] inception_5a/double_3x3_reduce_bn <- inception_5a/double_3x3_reduce
I1107 08:36:07.236076  5893 net.cpp:120] 0
I1107 08:36:07.236080  5893 net.cpp:126] This layer is inheriting previous layer's sync mode: 1
I1107 08:36:07.236086  5893 net.cpp:414] inception_5a/double_3x3_reduce_bn -> inception_5a/double_3x3_reduce_bn
I1107 08:36:07.236096  5893 net.cpp:159] Setting up inception_5a/double_3x3_reduce_bn
I1107 08:36:07.236115  5893 net.cpp:166] Top shape: 16 160 7 7 (125440)
I1107 08:36:07.236127  5893 layer_factory.hpp:74] Creating layer inception_5a/relu_double_3x3_reduce
I1107 08:36:07.236135  5893 net.cpp:94] Creating Layer inception_5a/relu_double_3x3_reduce
I1107 08:36:07.236140  5893 net.cpp:458] inception_5a/relu_double_3x3_reduce <- inception_5a/double_3x3_reduce_bn
I1107 08:36:07.236145  5893 net.cpp:120] 0
I1107 08:36:07.236150  5893 net.cpp:126] This layer is inheriting previous layer's sync mode: 1
I1107 08:36:07.236155  5893 net.cpp:403] inception_5a/relu_double_3x3_reduce -> inception_5a/double_3x3_reduce_bn (in-place)
I1107 08:36:07.236161  5893 net.cpp:159] Setting up inception_5a/relu_double_3x3_reduce
I1107 08:36:07.236388  5893 net.cpp:166] Top shape: 16 160 7 7 (125440)
I1107 08:36:07.236399  5893 layer_factory.hpp:74] Creating layer inception_5a/double_3x3_1
I1107 08:36:07.236423  5893 net.cpp:94] Creating Layer inception_5a/double_3x3_1
I1107 08:36:07.236429  5893 net.cpp:458] inception_5a/double_3x3_1 <- inception_5a/double_3x3_reduce_bn
I1107 08:36:07.236434  5893 net.cpp:120] 0
I1107 08:36:07.236438  5893 net.cpp:126] This layer is inheriting previous layer's sync mode: 1
I1107 08:36:07.236445  5893 net.cpp:414] inception_5a/double_3x3_1 -> inception_5a/double_3x3_1
I1107 08:36:07.236454  5893 net.cpp:159] Setting up inception_5a/double_3x3_1
I1107 08:36:07.239524  5893 cudnn_conv_layer.cpp:193] Reallocating workspace storage: 2596
I1107 08:36:07.239540  5893 net.cpp:166] Top shape: 16 224 7 7 (175616)
I1107 08:36:07.239562  5893 layer_factory.hpp:74] Creating layer inception_5a/double_3x3_1_bn
I1107 08:36:07.239573  5893 net.cpp:94] Creating Layer inception_5a/double_3x3_1_bn
I1107 08:36:07.239578  5893 net.cpp:458] inception_5a/double_3x3_1_bn <- inception_5a/double_3x3_1
I1107 08:36:07.239583  5893 net.cpp:120] 0
I1107 08:36:07.239588  5893 net.cpp:126] This layer is inheriting previous layer's sync mode: 1
I1107 08:36:07.239593  5893 net.cpp:414] inception_5a/double_3x3_1_bn -> inception_5a/double_3x3_1_bn
I1107 08:36:07.239603  5893 net.cpp:159] Setting up inception_5a/double_3x3_1_bn
I1107 08:36:07.239622  5893 net.cpp:166] Top shape: 16 224 7 7 (175616)
I1107 08:36:07.239632  5893 layer_factory.hpp:74] Creating layer inception_5a/relu_double_3x3_1
I1107 08:36:07.239640  5893 net.cpp:94] Creating Layer inception_5a/relu_double_3x3_1
I1107 08:36:07.239645  5893 net.cpp:458] inception_5a/relu_double_3x3_1 <- inception_5a/double_3x3_1_bn
I1107 08:36:07.239650  5893 net.cpp:120] 0
I1107 08:36:07.239655  5893 net.cpp:126] This layer is inheriting previous layer's sync mode: 1
I1107 08:36:07.239660  5893 net.cpp:403] inception_5a/relu_double_3x3_1 -> inception_5a/double_3x3_1_bn (in-place)
I1107 08:36:07.239665  5893 net.cpp:159] Setting up inception_5a/relu_double_3x3_1
I1107 08:36:07.240123  5893 net.cpp:166] Top shape: 16 224 7 7 (175616)
I1107 08:36:07.240135  5893 layer_factory.hpp:74] Creating layer inception_5a/double_3x3_2
I1107 08:36:07.240159  5893 net.cpp:94] Creating Layer inception_5a/double_3x3_2
I1107 08:36:07.240164  5893 net.cpp:458] inception_5a/double_3x3_2 <- inception_5a/double_3x3_1_bn
I1107 08:36:07.240170  5893 net.cpp:120] 0
I1107 08:36:07.240175  5893 net.cpp:126] This layer is inheriting previous layer's sync mode: 1
I1107 08:36:07.240180  5893 net.cpp:414] inception_5a/double_3x3_2 -> inception_5a/double_3x3_2
I1107 08:36:07.240190  5893 net.cpp:159] Setting up inception_5a/double_3x3_2
I1107 08:36:07.243700  5893 cudnn_conv_layer.cpp:193] Reallocating workspace storage: 2596
I1107 08:36:07.243715  5893 net.cpp:166] Top shape: 16 224 7 7 (175616)
I1107 08:36:07.243736  5893 layer_factory.hpp:74] Creating layer inception_5a/double_3x3_2_bn
I1107 08:36:07.243746  5893 net.cpp:94] Creating Layer inception_5a/double_3x3_2_bn
I1107 08:36:07.243751  5893 net.cpp:458] inception_5a/double_3x3_2_bn <- inception_5a/double_3x3_2
I1107 08:36:07.243755  5893 net.cpp:120] 0
I1107 08:36:07.243759  5893 net.cpp:126] This layer is inheriting previous layer's sync mode: 1
I1107 08:36:07.243765  5893 net.cpp:414] inception_5a/double_3x3_2_bn -> inception_5a/double_3x3_2_bn
I1107 08:36:07.243773  5893 net.cpp:159] Setting up inception_5a/double_3x3_2_bn
I1107 08:36:07.243791  5893 net.cpp:166] Top shape: 16 224 7 7 (175616)
I1107 08:36:07.243801  5893 layer_factory.hpp:74] Creating layer inception_5a/relu_double_3x3_2
I1107 08:36:07.243808  5893 net.cpp:94] Creating Layer inception_5a/relu_double_3x3_2
I1107 08:36:07.243813  5893 net.cpp:458] inception_5a/relu_double_3x3_2 <- inception_5a/double_3x3_2_bn
I1107 08:36:07.243818  5893 net.cpp:120] 0
I1107 08:36:07.243823  5893 net.cpp:126] This layer is inheriting previous layer's sync mode: 1
I1107 08:36:07.243827  5893 net.cpp:403] inception_5a/relu_double_3x3_2 -> inception_5a/double_3x3_2_bn (in-place)
I1107 08:36:07.243834  5893 net.cpp:159] Setting up inception_5a/relu_double_3x3_2
I1107 08:36:07.244218  5893 net.cpp:166] Top shape: 16 224 7 7 (175616)
I1107 08:36:07.244230  5893 layer_factory.hpp:74] Creating layer inception_5a/pool
I1107 08:36:07.244248  5893 layer_factory.cpp:55] CUDNN does not support padding or multiple tops. Using Caffe's own pooling layer.
I1107 08:36:07.244256  5893 net.cpp:94] Creating Layer inception_5a/pool
I1107 08:36:07.244261  5893 net.cpp:458] inception_5a/pool <- inception_4e/output_inception_4e/output_0_split_3
I1107 08:36:07.244266  5893 net.cpp:120] 0
I1107 08:36:07.244269  5893 net.cpp:126] This layer is inheriting previous layer's sync mode: 1
I1107 08:36:07.244276  5893 net.cpp:414] inception_5a/pool -> inception_5a/pool
I1107 08:36:07.244282  5893 net.cpp:159] Setting up inception_5a/pool
I1107 08:36:07.244290  5893 net.cpp:166] Top shape: 16 1056 7 7 (827904)
I1107 08:36:07.244294  5893 layer_factory.hpp:74] Creating layer inception_5a/pool_proj
I1107 08:36:07.244302  5893 net.cpp:94] Creating Layer inception_5a/pool_proj
I1107 08:36:07.244313  5893 net.cpp:458] inception_5a/pool_proj <- inception_5a/pool
I1107 08:36:07.244318  5893 net.cpp:120] 0
I1107 08:36:07.244321  5893 net.cpp:126] This layer is inheriting previous layer's sync mode: 1
I1107 08:36:07.244328  5893 net.cpp:414] inception_5a/pool_proj -> inception_5a/pool_proj
I1107 08:36:07.244334  5893 net.cpp:159] Setting up inception_5a/pool_proj
I1107 08:36:07.246157  5893 cudnn_conv_layer.cpp:193] Reallocating workspace storage: 2476
I1107 08:36:07.246175  5893 net.cpp:166] Top shape: 16 128 7 7 (100352)
I1107 08:36:07.246196  5893 layer_factory.hpp:74] Creating layer inception_5a/pool_proj_bn
I1107 08:36:07.246207  5893 net.cpp:94] Creating Layer inception_5a/pool_proj_bn
I1107 08:36:07.246212  5893 net.cpp:458] inception_5a/pool_proj_bn <- inception_5a/pool_proj
I1107 08:36:07.246218  5893 net.cpp:120] 0
I1107 08:36:07.246222  5893 net.cpp:126] This layer is inheriting previous layer's sync mode: 1
I1107 08:36:07.246228  5893 net.cpp:414] inception_5a/pool_proj_bn -> inception_5a/pool_proj_bn
I1107 08:36:07.246237  5893 net.cpp:159] Setting up inception_5a/pool_proj_bn
I1107 08:36:07.246258  5893 net.cpp:166] Top shape: 16 128 7 7 (100352)
I1107 08:36:07.246268  5893 layer_factory.hpp:74] Creating layer inception_5a/relu_pool_proj
I1107 08:36:07.246276  5893 net.cpp:94] Creating Layer inception_5a/relu_pool_proj
I1107 08:36:07.246281  5893 net.cpp:458] inception_5a/relu_pool_proj <- inception_5a/pool_proj_bn
I1107 08:36:07.246286  5893 net.cpp:120] 0
I1107 08:36:07.246290  5893 net.cpp:126] This layer is inheriting previous layer's sync mode: 1
I1107 08:36:07.246295  5893 net.cpp:403] inception_5a/relu_pool_proj -> inception_5a/pool_proj_bn (in-place)
I1107 08:36:07.246302  5893 net.cpp:159] Setting up inception_5a/relu_pool_proj
I1107 08:36:07.246532  5893 net.cpp:166] Top shape: 16 128 7 7 (100352)
I1107 08:36:07.246543  5893 layer_factory.hpp:74] Creating layer inception_5a/output
I1107 08:36:07.246551  5893 net.cpp:94] Creating Layer inception_5a/output
I1107 08:36:07.246557  5893 net.cpp:458] inception_5a/output <- inception_5a/1x1_bn
I1107 08:36:07.246564  5893 net.cpp:458] inception_5a/output <- inception_5a/3x3_bn
I1107 08:36:07.246570  5893 net.cpp:458] inception_5a/output <- inception_5a/double_3x3_2_bn
I1107 08:36:07.246577  5893 net.cpp:458] inception_5a/output <- inception_5a/pool_proj_bn
I1107 08:36:07.246582  5893 net.cpp:120] 0
I1107 08:36:07.246587  5893 net.cpp:126] This layer is inheriting previous layer's sync mode: 1
I1107 08:36:07.246592  5893 net.cpp:414] inception_5a/output -> inception_5a/output
I1107 08:36:07.246604  5893 net.cpp:159] Setting up inception_5a/output
I1107 08:36:07.246613  5893 net.cpp:166] Top shape: 16 1024 7 7 (802816)
I1107 08:36:07.246633  5893 layer_factory.hpp:74] Creating layer inception_5a/output_inception_5a/output_0_split
I1107 08:36:07.246640  5893 net.cpp:94] Creating Layer inception_5a/output_inception_5a/output_0_split
I1107 08:36:07.246645  5893 net.cpp:458] inception_5a/output_inception_5a/output_0_split <- inception_5a/output
I1107 08:36:07.246665  5893 net.cpp:120] 0
I1107 08:36:07.246670  5893 net.cpp:126] This layer is inheriting previous layer's sync mode: 1
I1107 08:36:07.246675  5893 net.cpp:414] inception_5a/output_inception_5a/output_0_split -> inception_5a/output_inception_5a/output_0_split_0
I1107 08:36:07.246685  5893 net.cpp:414] inception_5a/output_inception_5a/output_0_split -> inception_5a/output_inception_5a/output_0_split_1
I1107 08:36:07.246692  5893 net.cpp:414] inception_5a/output_inception_5a/output_0_split -> inception_5a/output_inception_5a/output_0_split_2
I1107 08:36:07.246701  5893 net.cpp:414] inception_5a/output_inception_5a/output_0_split -> inception_5a/output_inception_5a/output_0_split_3
I1107 08:36:07.246706  5893 net.cpp:159] Setting up inception_5a/output_inception_5a/output_0_split
I1107 08:36:07.246716  5893 net.cpp:166] Top shape: 16 1024 7 7 (802816)
I1107 08:36:07.246721  5893 net.cpp:166] Top shape: 16 1024 7 7 (802816)
I1107 08:36:07.246726  5893 net.cpp:166] Top shape: 16 1024 7 7 (802816)
I1107 08:36:07.246731  5893 net.cpp:166] Top shape: 16 1024 7 7 (802816)
I1107 08:36:07.246737  5893 layer_factory.hpp:74] Creating layer inception_5b/1x1
I1107 08:36:07.246747  5893 net.cpp:94] Creating Layer inception_5b/1x1
I1107 08:36:07.246752  5893 net.cpp:458] inception_5b/1x1 <- inception_5a/output_inception_5a/output_0_split_0
I1107 08:36:07.246757  5893 net.cpp:120] 0
I1107 08:36:07.246760  5893 net.cpp:126] This layer is inheriting previous layer's sync mode: 1
I1107 08:36:07.246767  5893 net.cpp:414] inception_5b/1x1 -> inception_5b/1x1
I1107 08:36:07.246775  5893 net.cpp:159] Setting up inception_5b/1x1
I1107 08:36:07.250406  5893 cudnn_conv_layer.cpp:193] Reallocating workspace storage: 3211264
I1107 08:36:07.250423  5893 net.cpp:166] Top shape: 16 352 7 7 (275968)
I1107 08:36:07.250445  5893 layer_factory.hpp:74] Creating layer inception_5b/1x1_bn
I1107 08:36:07.250457  5893 net.cpp:94] Creating Layer inception_5b/1x1_bn
I1107 08:36:07.250461  5893 net.cpp:458] inception_5b/1x1_bn <- inception_5b/1x1
I1107 08:36:07.250468  5893 net.cpp:120] 0
I1107 08:36:07.250471  5893 net.cpp:126] This layer is inheriting previous layer's sync mode: 1
I1107 08:36:07.250478  5893 net.cpp:414] inception_5b/1x1_bn -> inception_5b/1x1_bn
I1107 08:36:07.250486  5893 net.cpp:159] Setting up inception_5b/1x1_bn
I1107 08:36:07.250506  5893 net.cpp:166] Top shape: 16 352 7 7 (275968)
I1107 08:36:07.250516  5893 layer_factory.hpp:74] Creating layer inception_5b/relu_1x1
I1107 08:36:07.250524  5893 net.cpp:94] Creating Layer inception_5b/relu_1x1
I1107 08:36:07.250529  5893 net.cpp:458] inception_5b/relu_1x1 <- inception_5b/1x1_bn
I1107 08:36:07.250533  5893 net.cpp:120] 0
I1107 08:36:07.250537  5893 net.cpp:126] This layer is inheriting previous layer's sync mode: 1
I1107 08:36:07.250542  5893 net.cpp:403] inception_5b/relu_1x1 -> inception_5b/1x1_bn (in-place)
I1107 08:36:07.250548  5893 net.cpp:159] Setting up inception_5b/relu_1x1
I1107 08:36:07.250944  5893 net.cpp:166] Top shape: 16 352 7 7 (275968)
I1107 08:36:07.250957  5893 layer_factory.hpp:74] Creating layer inception_5b/3x3_reduce
I1107 08:36:07.250982  5893 net.cpp:94] Creating Layer inception_5b/3x3_reduce
I1107 08:36:07.250988  5893 net.cpp:458] inception_5b/3x3_reduce <- inception_5a/output_inception_5a/output_0_split_1
I1107 08:36:07.250993  5893 net.cpp:120] 0
I1107 08:36:07.250998  5893 net.cpp:126] This layer is inheriting previous layer's sync mode: 1
I1107 08:36:07.251004  5893 net.cpp:414] inception_5b/3x3_reduce -> inception_5b/3x3_reduce
I1107 08:36:07.251013  5893 net.cpp:159] Setting up inception_5b/3x3_reduce
I1107 08:36:07.253324  5893 cudnn_conv_layer.cpp:193] Reallocating workspace storage: 3211264
I1107 08:36:07.253340  5893 net.cpp:166] Top shape: 16 192 7 7 (150528)
I1107 08:36:07.253362  5893 layer_factory.hpp:74] Creating layer inception_5b/3x3_reduce_bn
I1107 08:36:07.253372  5893 net.cpp:94] Creating Layer inception_5b/3x3_reduce_bn
I1107 08:36:07.253377  5893 net.cpp:458] inception_5b/3x3_reduce_bn <- inception_5b/3x3_reduce
I1107 08:36:07.253399  5893 net.cpp:120] 0
I1107 08:36:07.253403  5893 net.cpp:126] This layer is inheriting previous layer's sync mode: 1
I1107 08:36:07.253412  5893 net.cpp:414] inception_5b/3x3_reduce_bn -> inception_5b/3x3_reduce_bn
I1107 08:36:07.253420  5893 net.cpp:159] Setting up inception_5b/3x3_reduce_bn
I1107 08:36:07.253440  5893 net.cpp:166] Top shape: 16 192 7 7 (150528)
I1107 08:36:07.253450  5893 layer_factory.hpp:74] Creating layer inception_5b/relu_3x3_reduce
I1107 08:36:07.253458  5893 net.cpp:94] Creating Layer inception_5b/relu_3x3_reduce
I1107 08:36:07.253461  5893 net.cpp:458] inception_5b/relu_3x3_reduce <- inception_5b/3x3_reduce_bn
I1107 08:36:07.253466  5893 net.cpp:120] 0
I1107 08:36:07.253470  5893 net.cpp:126] This layer is inheriting previous layer's sync mode: 1
I1107 08:36:07.253474  5893 net.cpp:403] inception_5b/relu_3x3_reduce -> inception_5b/3x3_reduce_bn (in-place)
I1107 08:36:07.253480  5893 net.cpp:159] Setting up inception_5b/relu_3x3_reduce
I1107 08:36:07.253870  5893 net.cpp:166] Top shape: 16 192 7 7 (150528)
I1107 08:36:07.253882  5893 layer_factory.hpp:74] Creating layer inception_5b/3x3
I1107 08:36:07.253904  5893 net.cpp:94] Creating Layer inception_5b/3x3
I1107 08:36:07.253911  5893 net.cpp:458] inception_5b/3x3 <- inception_5b/3x3_reduce_bn
I1107 08:36:07.253916  5893 net.cpp:120] 0
I1107 08:36:07.253919  5893 net.cpp:126] This layer is inheriting previous layer's sync mode: 1
I1107 08:36:07.253926  5893 net.cpp:414] inception_5b/3x3 -> inception_5b/3x3
I1107 08:36:07.253933  5893 net.cpp:159] Setting up inception_5b/3x3
I1107 08:36:07.258990  5893 cudnn_conv_layer.cpp:193] Reallocating workspace storage: 2596
I1107 08:36:07.259019  5893 net.cpp:166] Top shape: 16 320 7 7 (250880)
I1107 08:36:07.259030  5893 layer_factory.hpp:74] Creating layer inception_5b/3x3_bn
I1107 08:36:07.259040  5893 net.cpp:94] Creating Layer inception_5b/3x3_bn
I1107 08:36:07.259047  5893 net.cpp:458] inception_5b/3x3_bn <- inception_5b/3x3
I1107 08:36:07.259052  5893 net.cpp:120] 0
I1107 08:36:07.259057  5893 net.cpp:126] This layer is inheriting previous layer's sync mode: 1
I1107 08:36:07.259063  5893 net.cpp:414] inception_5b/3x3_bn -> inception_5b/3x3_bn
I1107 08:36:07.259071  5893 net.cpp:159] Setting up inception_5b/3x3_bn
I1107 08:36:07.259098  5893 net.cpp:166] Top shape: 16 320 7 7 (250880)
I1107 08:36:07.259107  5893 layer_factory.hpp:74] Creating layer inception_5b/relu_3x3
I1107 08:36:07.259115  5893 net.cpp:94] Creating Layer inception_5b/relu_3x3
I1107 08:36:07.259119  5893 net.cpp:458] inception_5b/relu_3x3 <- inception_5b/3x3_bn
I1107 08:36:07.259124  5893 net.cpp:120] 0
I1107 08:36:07.259127  5893 net.cpp:126] This layer is inheriting previous layer's sync mode: 1
I1107 08:36:07.259132  5893 net.cpp:403] inception_5b/relu_3x3 -> inception_5b/3x3_bn (in-place)
I1107 08:36:07.259138  5893 net.cpp:159] Setting up inception_5b/relu_3x3
I1107 08:36:07.259362  5893 net.cpp:166] Top shape: 16 320 7 7 (250880)
I1107 08:36:07.259372  5893 layer_factory.hpp:74] Creating layer inception_5b/double_3x3_reduce
I1107 08:36:07.259382  5893 net.cpp:94] Creating Layer inception_5b/double_3x3_reduce
I1107 08:36:07.259387  5893 net.cpp:458] inception_5b/double_3x3_reduce <- inception_5a/output_inception_5a/output_0_split_2
I1107 08:36:07.259392  5893 net.cpp:120] 0
I1107 08:36:07.259397  5893 net.cpp:126] This layer is inheriting previous layer's sync mode: 1
I1107 08:36:07.259402  5893 net.cpp:414] inception_5b/double_3x3_reduce -> inception_5b/double_3x3_reduce
I1107 08:36:07.259410  5893 net.cpp:159] Setting up inception_5b/double_3x3_reduce
I1107 08:36:07.261798  5893 cudnn_conv_layer.cpp:193] Reallocating workspace storage: 3211264
I1107 08:36:07.261826  5893 net.cpp:166] Top shape: 16 192 7 7 (150528)
I1107 08:36:07.261836  5893 layer_factory.hpp:74] Creating layer inception_5b/double_3x3_reduce_bn
I1107 08:36:07.261845  5893 net.cpp:94] Creating Layer inception_5b/double_3x3_reduce_bn
I1107 08:36:07.261850  5893 net.cpp:458] inception_5b/double_3x3_reduce_bn <- inception_5b/double_3x3_reduce
I1107 08:36:07.261872  5893 net.cpp:120] 0
I1107 08:36:07.261875  5893 net.cpp:126] This layer is inheriting previous layer's sync mode: 1
I1107 08:36:07.261883  5893 net.cpp:414] inception_5b/double_3x3_reduce_bn -> inception_5b/double_3x3_reduce_bn
I1107 08:36:07.261891  5893 net.cpp:159] Setting up inception_5b/double_3x3_reduce_bn
I1107 08:36:07.261909  5893 net.cpp:166] Top shape: 16 192 7 7 (150528)
I1107 08:36:07.261920  5893 layer_factory.hpp:74] Creating layer inception_5b/relu_double_3x3_reduce
I1107 08:36:07.261926  5893 net.cpp:94] Creating Layer inception_5b/relu_double_3x3_reduce
I1107 08:36:07.261931  5893 net.cpp:458] inception_5b/relu_double_3x3_reduce <- inception_5b/double_3x3_reduce_bn
I1107 08:36:07.261937  5893 net.cpp:120] 0
I1107 08:36:07.261941  5893 net.cpp:126] This layer is inheriting previous layer's sync mode: 1
I1107 08:36:07.261946  5893 net.cpp:403] inception_5b/relu_double_3x3_reduce -> inception_5b/double_3x3_reduce_bn (in-place)
I1107 08:36:07.261952  5893 net.cpp:159] Setting up inception_5b/relu_double_3x3_reduce
I1107 08:36:07.262323  5893 net.cpp:166] Top shape: 16 192 7 7 (150528)
I1107 08:36:07.262336  5893 layer_factory.hpp:74] Creating layer inception_5b/double_3x3_1
I1107 08:36:07.262361  5893 net.cpp:94] Creating Layer inception_5b/double_3x3_1
I1107 08:36:07.262367  5893 net.cpp:458] inception_5b/double_3x3_1 <- inception_5b/double_3x3_reduce_bn
I1107 08:36:07.262372  5893 net.cpp:120] 0
I1107 08:36:07.262375  5893 net.cpp:126] This layer is inheriting previous layer's sync mode: 1
I1107 08:36:07.262382  5893 net.cpp:414] inception_5b/double_3x3_1 -> inception_5b/double_3x3_1
I1107 08:36:07.262390  5893 net.cpp:159] Setting up inception_5b/double_3x3_1
I1107 08:36:07.265879  5893 cudnn_conv_layer.cpp:193] Reallocating workspace storage: 2596
I1107 08:36:07.265908  5893 net.cpp:166] Top shape: 16 224 7 7 (175616)
I1107 08:36:07.265918  5893 layer_factory.hpp:74] Creating layer inception_5b/double_3x3_1_bn
I1107 08:36:07.265926  5893 net.cpp:94] Creating Layer inception_5b/double_3x3_1_bn
I1107 08:36:07.265933  5893 net.cpp:458] inception_5b/double_3x3_1_bn <- inception_5b/double_3x3_1
I1107 08:36:07.265938  5893 net.cpp:120] 0
I1107 08:36:07.265943  5893 net.cpp:126] This layer is inheriting previous layer's sync mode: 1
I1107 08:36:07.265949  5893 net.cpp:414] inception_5b/double_3x3_1_bn -> inception_5b/double_3x3_1_bn
I1107 08:36:07.265957  5893 net.cpp:159] Setting up inception_5b/double_3x3_1_bn
I1107 08:36:07.265976  5893 net.cpp:166] Top shape: 16 224 7 7 (175616)
I1107 08:36:07.265986  5893 layer_factory.hpp:74] Creating layer inception_5b/relu_double_3x3_1
I1107 08:36:07.265993  5893 net.cpp:94] Creating Layer inception_5b/relu_double_3x3_1
I1107 08:36:07.265997  5893 net.cpp:458] inception_5b/relu_double_3x3_1 <- inception_5b/double_3x3_1_bn
I1107 08:36:07.266002  5893 net.cpp:120] 0
I1107 08:36:07.266006  5893 net.cpp:126] This layer is inheriting previous layer's sync mode: 1
I1107 08:36:07.266010  5893 net.cpp:403] inception_5b/relu_double_3x3_1 -> inception_5b/double_3x3_1_bn (in-place)
I1107 08:36:07.266016  5893 net.cpp:159] Setting up inception_5b/relu_double_3x3_1
I1107 08:36:07.266391  5893 net.cpp:166] Top shape: 16 224 7 7 (175616)
I1107 08:36:07.266402  5893 layer_factory.hpp:74] Creating layer inception_5b/double_3x3_2
I1107 08:36:07.266427  5893 net.cpp:94] Creating Layer inception_5b/double_3x3_2
I1107 08:36:07.266433  5893 net.cpp:458] inception_5b/double_3x3_2 <- inception_5b/double_3x3_1_bn
I1107 08:36:07.266438  5893 net.cpp:120] 0
I1107 08:36:07.266441  5893 net.cpp:126] This layer is inheriting previous layer's sync mode: 1
I1107 08:36:07.266448  5893 net.cpp:414] inception_5b/double_3x3_2 -> inception_5b/double_3x3_2
I1107 08:36:07.266456  5893 net.cpp:159] Setting up inception_5b/double_3x3_2
I1107 08:36:07.270589  5893 cudnn_conv_layer.cpp:193] Reallocating workspace storage: 2596
I1107 08:36:07.270622  5893 net.cpp:166] Top shape: 16 224 7 7 (175616)
I1107 08:36:07.270645  5893 layer_factory.hpp:74] Creating layer inception_5b/double_3x3_2_bn
I1107 08:36:07.270668  5893 net.cpp:94] Creating Layer inception_5b/double_3x3_2_bn
I1107 08:36:07.270674  5893 net.cpp:458] inception_5b/double_3x3_2_bn <- inception_5b/double_3x3_2
I1107 08:36:07.270681  5893 net.cpp:120] 0
I1107 08:36:07.270685  5893 net.cpp:126] This layer is inheriting previous layer's sync mode: 1
I1107 08:36:07.270692  5893 net.cpp:414] inception_5b/double_3x3_2_bn -> inception_5b/double_3x3_2_bn
I1107 08:36:07.270701  5893 net.cpp:159] Setting up inception_5b/double_3x3_2_bn
I1107 08:36:07.270721  5893 net.cpp:166] Top shape: 16 224 7 7 (175616)
I1107 08:36:07.270732  5893 layer_factory.hpp:74] Creating layer inception_5b/relu_double_3x3_2
I1107 08:36:07.270740  5893 net.cpp:94] Creating Layer inception_5b/relu_double_3x3_2
I1107 08:36:07.270745  5893 net.cpp:458] inception_5b/relu_double_3x3_2 <- inception_5b/double_3x3_2_bn
I1107 08:36:07.270750  5893 net.cpp:120] 0
I1107 08:36:07.270755  5893 net.cpp:126] This layer is inheriting previous layer's sync mode: 1
I1107 08:36:07.270759  5893 net.cpp:403] inception_5b/relu_double_3x3_2 -> inception_5b/double_3x3_2_bn (in-place)
I1107 08:36:07.270766  5893 net.cpp:159] Setting up inception_5b/relu_double_3x3_2
I1107 08:36:07.271009  5893 net.cpp:166] Top shape: 16 224 7 7 (175616)
I1107 08:36:07.271021  5893 layer_factory.hpp:74] Creating layer inception_5b/pool
I1107 08:36:07.271028  5893 layer_factory.cpp:55] CUDNN does not support padding or multiple tops. Using Caffe's own pooling layer.
I1107 08:36:07.271034  5893 net.cpp:94] Creating Layer inception_5b/pool
I1107 08:36:07.271039  5893 net.cpp:458] inception_5b/pool <- inception_5a/output_inception_5a/output_0_split_3
I1107 08:36:07.271045  5893 net.cpp:120] 0
I1107 08:36:07.271049  5893 net.cpp:126] This layer is inheriting previous layer's sync mode: 1
I1107 08:36:07.271055  5893 net.cpp:414] inception_5b/pool -> inception_5b/pool
I1107 08:36:07.271062  5893 net.cpp:159] Setting up inception_5b/pool
I1107 08:36:07.271070  5893 net.cpp:166] Top shape: 16 1024 7 7 (802816)
I1107 08:36:07.271075  5893 layer_factory.hpp:74] Creating layer inception_5b/pool_proj
I1107 08:36:07.271085  5893 net.cpp:94] Creating Layer inception_5b/pool_proj
I1107 08:36:07.271090  5893 net.cpp:458] inception_5b/pool_proj <- inception_5b/pool
I1107 08:36:07.271095  5893 net.cpp:120] 0
I1107 08:36:07.271098  5893 net.cpp:126] This layer is inheriting previous layer's sync mode: 1
I1107 08:36:07.271106  5893 net.cpp:414] inception_5b/pool_proj -> inception_5b/pool_proj
I1107 08:36:07.271112  5893 net.cpp:159] Setting up inception_5b/pool_proj
I1107 08:36:07.273126  5893 cudnn_conv_layer.cpp:193] Reallocating workspace storage: 2476
I1107 08:36:07.273144  5893 net.cpp:166] Top shape: 16 128 7 7 (100352)
I1107 08:36:07.273152  5893 layer_factory.hpp:74] Creating layer inception_5b/pool_proj_bn
I1107 08:36:07.273161  5893 net.cpp:94] Creating Layer inception_5b/pool_proj_bn
I1107 08:36:07.273169  5893 net.cpp:458] inception_5b/pool_proj_bn <- inception_5b/pool_proj
I1107 08:36:07.273175  5893 net.cpp:120] 0
I1107 08:36:07.273178  5893 net.cpp:126] This layer is inheriting previous layer's sync mode: 1
I1107 08:36:07.273185  5893 net.cpp:414] inception_5b/pool_proj_bn -> inception_5b/pool_proj_bn
I1107 08:36:07.273195  5893 net.cpp:159] Setting up inception_5b/pool_proj_bn
I1107 08:36:07.273213  5893 net.cpp:166] Top shape: 16 128 7 7 (100352)
I1107 08:36:07.273229  5893 layer_factory.hpp:74] Creating layer inception_5b/relu_pool_proj
I1107 08:36:07.273236  5893 net.cpp:94] Creating Layer inception_5b/relu_pool_proj
I1107 08:36:07.273241  5893 net.cpp:458] inception_5b/relu_pool_proj <- inception_5b/pool_proj_bn
I1107 08:36:07.273246  5893 net.cpp:120] 0
I1107 08:36:07.273248  5893 net.cpp:126] This layer is inheriting previous layer's sync mode: 1
I1107 08:36:07.273253  5893 net.cpp:403] inception_5b/relu_pool_proj -> inception_5b/pool_proj_bn (in-place)
I1107 08:36:07.273259  5893 net.cpp:159] Setting up inception_5b/relu_pool_proj
I1107 08:36:07.273633  5893 net.cpp:166] Top shape: 16 128 7 7 (100352)
I1107 08:36:07.273645  5893 layer_factory.hpp:74] Creating layer inception_5b/output
I1107 08:36:07.273665  5893 net.cpp:94] Creating Layer inception_5b/output
I1107 08:36:07.273671  5893 net.cpp:458] inception_5b/output <- inception_5b/1x1_bn
I1107 08:36:07.273679  5893 net.cpp:458] inception_5b/output <- inception_5b/3x3_bn
I1107 08:36:07.273685  5893 net.cpp:458] inception_5b/output <- inception_5b/double_3x3_2_bn
I1107 08:36:07.273691  5893 net.cpp:458] inception_5b/output <- inception_5b/pool_proj_bn
I1107 08:36:07.273696  5893 net.cpp:120] 0
I1107 08:36:07.273700  5893 net.cpp:126] This layer is inheriting previous layer's sync mode: 1
I1107 08:36:07.273706  5893 net.cpp:414] inception_5b/output -> inception_5b/output
I1107 08:36:07.273713  5893 net.cpp:159] Setting up inception_5b/output
I1107 08:36:07.273722  5893 net.cpp:166] Top shape: 16 1024 7 7 (802816)
I1107 08:36:07.273727  5893 layer_factory.hpp:74] Creating layer global_pool
I1107 08:36:07.273735  5893 net.cpp:94] Creating Layer global_pool
I1107 08:36:07.273740  5893 net.cpp:458] global_pool <- inception_5b/output
I1107 08:36:07.273746  5893 net.cpp:120] 0
I1107 08:36:07.273749  5893 net.cpp:126] This layer is inheriting previous layer's sync mode: 1
I1107 08:36:07.273756  5893 net.cpp:414] global_pool -> global_pool
I1107 08:36:07.273762  5893 net.cpp:159] Setting up global_pool
I1107 08:36:07.273993  5893 net.cpp:166] Top shape: 16 1024 1 1 (16384)
I1107 08:36:07.274004  5893 layer_factory.hpp:74] Creating layer dropout
I1107 08:36:07.274013  5893 net.cpp:94] Creating Layer dropout
I1107 08:36:07.274018  5893 net.cpp:458] dropout <- global_pool
I1107 08:36:07.274022  5893 net.cpp:120] 0
I1107 08:36:07.274026  5893 net.cpp:126] This layer is inheriting previous layer's sync mode: 1
I1107 08:36:07.274030  5893 net.cpp:403] dropout -> global_pool (in-place)
I1107 08:36:07.274037  5893 net.cpp:159] Setting up dropout
I1107 08:36:07.274044  5893 net.cpp:166] Top shape: 16 1024 1 1 (16384)
I1107 08:36:07.274049  5893 layer_factory.hpp:74] Creating layer fc_finetune_test
I1107 08:36:07.274058  5893 net.cpp:94] Creating Layer fc_finetune_test
I1107 08:36:07.274062  5893 net.cpp:458] fc_finetune_test <- global_pool
I1107 08:36:07.274067  5893 net.cpp:120] 0
I1107 08:36:07.274070  5893 net.cpp:126] This layer is inheriting previous layer's sync mode: 1
I1107 08:36:07.274076  5893 net.cpp:414] fc_finetune_test -> fc_finetune
I1107 08:36:07.274083  5893 net.cpp:159] Setting up fc_finetune_test
I1107 08:36:07.280087  5893 net.cpp:166] Top shape: 16 201 (3216)
I1107 08:36:07.280102  5893 layer_factory.hpp:74] Creating layer fc_finetune_fc_finetune_test_0_split
I1107 08:36:07.280123  5893 net.cpp:94] Creating Layer fc_finetune_fc_finetune_test_0_split
I1107 08:36:07.280129  5893 net.cpp:458] fc_finetune_fc_finetune_test_0_split <- fc_finetune
I1107 08:36:07.280135  5893 net.cpp:120] 0
I1107 08:36:07.280139  5893 net.cpp:126] This layer is inheriting previous layer's sync mode: 1
I1107 08:36:07.280145  5893 net.cpp:414] fc_finetune_fc_finetune_test_0_split -> fc_finetune_fc_finetune_test_0_split_0
I1107 08:36:07.280154  5893 net.cpp:414] fc_finetune_fc_finetune_test_0_split -> fc_finetune_fc_finetune_test_0_split_1
I1107 08:36:07.280161  5893 net.cpp:414] fc_finetune_fc_finetune_test_0_split -> fc_finetune_fc_finetune_test_0_split_2
I1107 08:36:07.280169  5893 net.cpp:159] Setting up fc_finetune_fc_finetune_test_0_split
I1107 08:36:07.280176  5893 net.cpp:166] Top shape: 16 201 (3216)
I1107 08:36:07.280181  5893 net.cpp:166] Top shape: 16 201 (3216)
I1107 08:36:07.280185  5893 net.cpp:166] Top shape: 16 201 (3216)
I1107 08:36:07.280190  5893 layer_factory.hpp:74] Creating layer loss
I1107 08:36:07.280197  5893 net.cpp:94] Creating Layer loss
I1107 08:36:07.280202  5893 net.cpp:458] loss <- fc_finetune_fc_finetune_test_0_split_0
I1107 08:36:07.280208  5893 net.cpp:458] loss <- label_data_1_split_0
I1107 08:36:07.280215  5893 net.cpp:120] 0
I1107 08:36:07.280218  5893 net.cpp:126] This layer is inheriting previous layer's sync mode: 1
…
